image_classification/classification.pt (torch, 90601 bytes, 6 tensors)

conv1.weight f4 [8, 3, 3, 3]
00000000: f01f 39bd 0b25 c33a ced6 363e 760e 2e3d
00000010: 112b 463d b81e 323e e8fe a4bb dbf2 593e
00000020: 8b37 e13c ed1f b8bd abd5 833d da6e d2bd
00000030: 7f25 403e 9d17 f93d ba12 5d3e b459 543e
00000040: 5c35 a83d 3f7a 3d3d 4aad 83bb 8868 42bc
00000050: 4963 2f3e b0ce 95bd c3e9 863e bc5f 333e
00000060: 870e 0d3d b8b9 543e 8f85 eb3d 1b2b b93d
00000070: b368 3abe 617e 67be 20e4 96bd d7f0 f93d
00000080: 930a c93d e2e5 073d 1289 913d 0e5a 593e
00000090: 33d1 63be c982 823c 816e 81bd 2123 943d
000000a0: 0b7c 24be e729 543a 5f8a 113e f110 8d3e
000000b0: 140b 8c3e bac0 10be 0bf5 8b3c 87ef b0be
000000c0: 5033 24bd 4f06 17bd c444 5bbe 8fef 423e
000000d0: 6ab2 853e de9a 8f3a e1ea cebd cc5e 8b3d
000000e0: 53ed 423e fac0 8fbd 5a42 32bd 6d48 d53d
000000f0: a52e 4b3e 2180 6f3e b0b6 643e ddf0 1f3e
00000100: 8b78 eb3d 5da6 49be 9bf1 073e 53d7 b7bd
00000110: 8dc3 40be 4789 d8bd b14c ffbd 28de f9bd
00000120: 342f 36bd 54c5 253d a7a5 65be 7cc0 81be
00000130: 6d0e 083c ba3d 5fbd 8e3e d03c e11b f3bd
00000140: a8de 503d bd52 1ebe e1c3 513e 714b a13d
00000150: 1a74 11be 7596 0b3e df86 693e dd84 33be
00000160: f75e 113d 503a a9bd 1e2c 26be a391 143e
00000170: 6f59 4d3e 82d2 473e d046 fd3d d7e3 c23d
00000180: 76ed 38bd 6b06 0d3e 760e b93b f306 54bc
00000190: 792e 953c 1865 01bd e179 f53d adf3 173e
000001a0: 6930 f73d addd a6bd c687 253d 4654 1c3d
000001b0: fbb2 083e 1909 1abd 969d 25bd 9036 40bc
000001c0: c194 cdbd 1eb8 79be d186 023e 60dd e2bd
000001d0: 5e99 44be 6c74 0f3e 6587 b3bd 7b90 31be
000001e0: 4668 433e 4f3c a73d ec8d c4bd 049b 8dbd
000001f0: caa7 1f3e d0f7 cb3d fd70 a63e 8ec8 193e
00000200: 29ca 243e 5ed3 9fbc 2298 42be f7d1 59be
00000210: ad64 8c3e 720f 32be 5fe2 fbbd 86ca 553e
00000220: 7182 873e 16ea c13d cff5 5d3e 4b5f d33d
00000230: 8472 143e b0d8 acbc 400e 1c3e 6e8d a1bd
00000240: d04c 463e ef0b a3bd 5cc6 eebd 43be 113e
00000250: 95e4 bd3d d5fe 993d afbd c1bd 2f83 853b
00000260: cb8f 093e 2509 503e ea11 4a3e d58d ed3d
00000270: 3818 61bd 56bc 833e 410a 863d b1c4 063d
00000280: 6dc0 7c3c 18a0 223e 2478 f13d ec5a 42be
00000290: 1f54 9ab9 60eb abbc 016b 15be c22d b9bd
000002a0: d885 26bd 9602 1e3e 95a6 cd3c d6ef dfbd
000002b0: ec48 c6bd c3bb 47be 7fd3 f6bd 19db c9bd
000002c0: f34c 433e 339f 77bd db4c 2d3e 70c1 a13d
000002d0: 1d32 903d 9562 2fbe cd85 7bbd b866 b8bd
000002e0: 4286 ce3d e23b 15be b8f1 e33d f645 7a3e
000002f0: 6830 853e e7be af3d 3890 4a3d 4d9f 323e
00000300: 9aee 7d3e 790c 18bd 4f56 30bd 3302 593e
00000310: 3077 ecbd 4aa1 62bd f8c3 c73d b35c 08be
00000320: 3b63 82bd bc7a 92bd c228 a8bd ff5c 47be
00000330: 5a52 5e3e 1f30 a0bc 6cbb 1dbd e92b 103e
00000340: 67be 2fbe 93be 6bbd d36d 13bd 9393 19be
00000350: 5023 bc3c 6053 2d3e e060 eebd 0af4 dabd
-0.045196474 0.0014888359 0.17855379 0.04249426 0.048380915 0.17394531 -0.00503527 0.21284048
0.027492305 -0.08990464 0.06437238 -0.102750495 0.18764304 0.12162707 0.21589175 0.20737344
0.082133025 0.04625916 -0.0040184604 -0.0118657425 0.17127718 -0.07314813 0.2635022 0.17516989
0.034437682 0.20773971 0.11500084 0.09041425 -0.18204002 -0.22606803 -0.0736773 0.1220414
0.0981647 0.033178218 0.07106222 0.2122576 -0.22247772 0.015931504 -0.06319905 0.07233263
-0.16062944 0.0008093402 0.1421294 0.27551988 0.27352202 -0.1413602 0.017084619 -0.34557745
-0.040087998 -0.03687125 -0.21412951 0.19036697 0.26112682 0.0010956188 -0.10103393 0.068051904
0.19035845 -0.07019229 -0.04352031 0.10414205 0.19842012 0.23388721 0.22335315 0.15619226
0.11497601 -0.19692369 0.13275759 -0.08976617 -0.18824597 -0.105730586 -0.124657996 -0.12200576
-0.04447861 0.04047139 -0.22426473 -0.25342166 0.008304221 -0.054502226 0.025420453 -0.11870552
0.05099359 -0.1546125 0.20484878 0.078757174 -0.14204445 0.13631614 0.22805355 -0.17531152
0.035490956 -0.08263075 -0.16227767 0.14508681 0.20053647 0.19513896 0.12367022 0.09516113
-0.045148335 0.1377198 0.005647476 -0.01294111 0.018210636 -0.03159055 0.11986137 0.14839049
0.120697804 -0.0814775 0.040412687 0.038166307 0.13349526 -0.037606332 -0.04043349 -0.011731759
-0.10038138 -0.24386641 0.12746741 -0.1107738 -0.1919913 0.14009255 -0.08766059 -0.17340271
0.19082746 0.081658 -0.09597382 -0.069143325 0.1559135 0.09959376 0.32508078 0.15017912
0.16092743 -0.019509967 -0.19003347 -0.21271501 0.2742056 -0.17388704 -0.12299036 0.20878038
0.26466706 0.094684765 0.216758 0.1032091 0.14496809 -0.021099418 0.15239811 -0.07888304
0.19365239 -0.079612605 -0.11658928 0.14232735 0.09272114 0.075193085 -0.094600074 0.004074476
0.13433759 0.20315988 0.19733396 0.11599318 -0.054954737 0.25729626 0.065449245 0.032902423
0.015426737 0.15881383 0.11790493 -0.18979996 -0.00029435844 -0.020986259 -0.145916 -0.09041931
-0.040654987 0.15430674 0.025103847 -0.10934417 -0.096818775 -0.19505219 -0.120520584 -0.09856243
0.19072323 -0.06045456 0.1692385 0.078982234 0.07040808 -0.1712745 -0.0614069 -0.09003967
0.100842014 -0.14573625 0.111300886 0.2444075 0.26013494 0.085813336 0.049453944 0.17443581
0.2479805 -0.03712127 -0.04305106 0.21192245 -0.11546171 -0.0553296 0.09754175 -0.13316612
-0.06366583 -0.07152316 -0.08210899 -0.19469069 0.21711102 -0.019554196 -0.038508818 0.1407925
-0.17162476 -0.057554793 -0.03599341 -0.14997701 0.022966057 0.16926336 -0.11639571 -0.10691078

conv1.bias f4 [8]
00000000: d2cd e8be 7ce1 4f3c 7868 033e bceb 3abe
00000010: ee66 313e 3b68 a6be 57b9 4d3e 3564 1a3e
-0.45469528 0.012688037 0.1283282 -0.18253988 0.17324421 -0.32501397 0.20090233 0.15077288

conv2.weight f4 [16, 8, 3, 3]
00000000: 7f87 2cbd e64e f83c a80a 8d3d 4b36 c23c
00000010: 9e8c b1bd 9a3f 1cbd 6860 ebbd 2152 933d
00000020: d78e b8bd 091d c4bd beab 913c 727e 573d
00000030: ab57 42bd fc6d 08be e103 bb3b 7fa7 bdbd
00000040: 276d 6abe 027a e0bd 229c 0abe 1c78 97bd
00000050: 1b46 3fbc 1913 16be 9e90 67bd 5254 a93c
00000060: 7767 cfbc 8935 6c3d ebf5 74bd 7113 80bc
00000070: 68d9 debd 197d 48bd 2043 b73b 871c 923d
00000080: 9f2c b53d 994a 1fbd 5b78 a63d d4ee 3ab9
00000090: 008e 88bd 6a69 81bd f4fd 29be 91a6 2bbd
000000a0: 3cb1 babd 625d 21be 7f78 56be 18ae cbbd
000000b0: ae67 c8bd 7621 a03d 9288 b33c 089c 91bd
000000c0: 0cd5 423c 4674 9cbd d719 b83d ad91 133d
000000d0: 850f 1a3d 9c6f 0c3d 47e2 debd 001b 0ebe
000000e0: ea10 a3bd 7638 86be d391 5bbe 6fda 07be
000000f0: 8349 97bd 1305 35be a2d9 50be 2f3f 23bd
00000100: 658e acbd 4aaa 2dbe bfdb b1bd 99d5 dabd
00000110: c1bb 58be 968e 88bd 90a6 48be 314a 7cbc
00000120: d7a2 06be d72e 1abd b138 22bd 88d9 75bd
00000130: ccee 993d d674 92bd 5d6d 6bbb 4cb5 50bd
00000140: c48d 90bd 54b6 f23d 893a 9e3e 5539 a13d
00000150: 1700 67bd fd97 0d3e aa80 71bd eec3 e23d
00000160: 35e6 013e 252d 723d 1767 fa3c 3eca b3bc
00000170: 79c2 7b3c 60ad fcbc 8b3d 343c 61ff 6f3b
00000180: b7e3 d53b c788 4dbb 613e 173e 8b1e 9fbc
00000190: 21ee e93c d8f9 8b3d 236c 45bd 2ff8 ab3d
000001a0: 15c2 293d 90b0 8fbd c632 eabb 74ac e3bd
000001b0: f888 473d 4685 db3d e8ce f83d ea8d 563d
000001c0: 0357 10bd 65be 543e 3434 37bd 3192 673b
000001d0: e7b2 963c d2f5 00be c714 eebd 744d d8bc
000001e0: c17e debd f9fa debd 082a 503d 881e dbbd
000001f0: 937b 1bbe a01b 0d3d 9e75 6b3e 75ee 3b3e
00000200: 382e 183e 8fcd cd3d 08a9 a03d c2cd 8dbc
00000210: 4375 cf3c 13fc fa3d 9b41 593d fb58 bf3d
00000220: a151 1c3d 9abf 8e3d 1f5a 24bd 4c43 91ba
00000230: 6a55 603e a262 bc3d 5e20 ab3d 0ca5 703e
00000240: e3a6 1abe 23d8 9ebc 271f 3a3e d444 823c
00000250: 7db4 8d3d 4f9c 1d3e 3f8e 1d3c 9a4b e53d
00000260: 9bed 0c3e a96f 3eba 26a1 72bd 5e2e be3d
00000270: ed40 693e 2550 f93d 1ba7 41bd d0b0 453e
00000280: b585 6d3e 1c99 c43d ed0f 1f3d ac18 4ebb
00000290: f3d1 3ebe c731 393e 16ff 7fbd 3ca8 8cbd
000002a0: def2 4b3e db5f d6bd fb6c 42bd e7e8 76bd
000002b0: 54e2 a7bd 6858 083e 0474 52bd 9c83 bcbd
000002c0: e324 fe3d a158 823d 787a 4fbd 3dc0 093d
000002d0: 318e 743d dfd2 44be c1cd 45be fef3 a2bd
000002e0: 27f7 afbe 48d3 96be 388a b8be 6bfc e6be
000002f0: c408 5ebe a007 b1bd 9d58 40bc 82ab 0f3d
00000300: affe 30be 32e4 0abe cd4e 84bd 5377 d33c
00000310: 42a9 bd3d 7c2f d93d 3fc7 99bc 14e4 ec3d
00000320: d5e8 5a3d 5dfb 6b3e d51d ed3c 03ae 21be
00000330: 0f8d d63d 7fea 67bd 95bf d8bd aa16 413e
00000340: 0698 81bd c103 a4be 2d2b 203e 65da 2bbe
00000350: 5c56 96be 8133 b3bd f5c7 96be c477 8fbe
00000360: 84fe 983d 3ad8 e93c 4eac 0ebe 347b 2c3e
00000370: ff55 07bd 7afe e4bb 5282 5d3e 9a77 83bd
00000380: d9e0 33be 6415 9b3e a9e2 30be d541 8ebe
00000390: e62c 793e 63a6 2cbd 919a 56be a028 983c
000003a0: 31e5 923d a31d 5d3d 88f4 dcbc fc86 20be
000003b0: e4e3 f6bd 8da8 90bd 52de 34be db99 88bd
000003c0: 9304 10be 2646 3bbd be9f 15bd c5b3 183e
000003d0: 88b3 0fbe c97d 2bbe 4a37 063e fa0a d9bd
000003e0: 9572 0abe 53d3 0c3e 54ab 193c c6a8 27be
000003f0: ac5c 35b9 8720 453e 9d2e c6bc f5b5 193e
-0.042121407 0.03031106 0.06886798 0.02370753 -0.08669399 -0.038146593 -0.114929974 0.07193399
-0.090116195 -0.095758505 0.017782088 0.052610822 -0.047446888 -0.13323206 0.0057072495 -0.09260463
-0.22893201 -0.10960771 -0.13536122 -0.07395956 -0.011674429 -0.14655723 -0.056534402 0.02067009
-0.02531789 0.057668243 -0.05980484 -0.01563427 -0.10881311 -0.048947427 0.0055927187 0.071343474
0.088464014 -0.0388895 0.08128425 -0.00017827313 -0.06667709 -0.06318934 -0.16600782 -0.041906897
-0.09115836 -0.15758279 -0.20944403 -0.09945315 -0.097854 0.07818882 0.021915708 -0.07109839
0.011891615 -0.07639365 0.089893036 0.0360276 0.037612457 0.034286126 -0.10883003 -0.13877487
-0.079622105 -0.2621495 -0.21442346 -0.1326692 -0.07387068 -0.17677717 -0.2039552 -0.03985518
-0.08425597 -0.16959491 -0.08684491 -0.10685272 -0.21165372 -0.06667821 -0.19594789 -0.015398548
-0.13148056 -0.037642326 -0.039604846 -0.060021907 0.0751625 -0.07151191 -0.003592334 -0.05095415
-0.0705829 0.118511826 0.30904034 0.07872263 -0.05639657 0.1382751 -0.058960594 0.11072527
0.12685473 0.059125084 0.030566735 -0.021947023 0.01536619 -0.03084439 0.011001001 0.0036620724
0.00652739 -0.0031362043 0.1476989 -0.019423744 0.028555932 0.06834763 -0.04819883 0.08396947
0.041444857 -0.070160985 -0.007147166 -0.11116877 0.048714608 0.10718779 0.12148839 0.052381434
-0.03523923 0.20775755 -0.04472752 0.003533494 0.018395854 -0.12593773 -0.11625057 -0.02640412
-0.1086402 -0.10887713 0.050821334 -0.10699183 -0.15183859 0.034450173 0.22994086 0.18352683
0.14861381 0.10048973 0.0784474 -0.017310027 0.02532447 0.122551106 0.053041082 0.093431436
0.038163785 0.06970139 -0.04012501 -0.0011082678 0.21907583 0.091985 0.08355783 0.2350046
-0.15102725 -0.019390171 0.18175946 0.01590196 0.06919191 0.15391658 0.009616434 0.111960605
0.13762514 -0.00072645635 -0.059235714 0.092861876 0.22778673 0.121734895 -0.047278505 0.1930573
0.23195536 0.09599516 0.038833547 -0.003144781 -0.18634777 0.18085395 -0.06249913 -0.06868026
0.19916865 -0.10467502 -0.047467213 -0.060280707 -0.081974655 0.13314974 -0.051380172 -0.0920479
0.12409379 0.06364561 -0.050653905 0.0336306 0.059705917 -0.19221066 -0.1931677 -0.07956694
-0.3436825 -0.2945807 -0.36042953 -0.45114455 -0.21683031 -0.086440325 -0.011739877 0.035075672
-0.17284654 -0.13563612 -0.064603426 0.025813734 0.09260799 0.1060476 -0.018771766 0.1156694
0.053444702 0.23045106 0.02894489 -0.15789036 0.104761235 -0.056620117 -0.105834164 0.18856302
-0.06327824 -0.32034114 0.1564147 -0.1678253 -0.29362762 -0.08750058 -0.2944943 -0.2802106
0.0747042 0.028545488 -0.13932917 0.16843873 -0.033040997 -0.006988344 0.21631745 -0.064192966
-0.17566241 0.30289757 -0.17273964 -0.277846 0.24333534 -0.042150866 -0.209574 0.018574059
0.07172621 0.053983342 -0.02697207 -0.15676492 -0.120551854 -0.070633985 -0.17662933 -0.066699706
-0.14064245 -0.045721196 -0.036529295 0.14912327 -0.1403333 -0.16747202 0.13107029 -0.10597797
-0.13520272 0.13752489 0.009379227 -0.16372976 -0.00017296028 0.1925069 -0.024192149 0.15010817

conv2.bias f4 [16]
00000000: 844f 2f3d 0d44 993d 56f1 bbbd 2342 28be
00000010: a973 eebc f46a 01be 291a f03c 93d3 f7bd
00000020: eae9 723b 6cca 87bd 871c 42bd c1c6 3abd
00000030: e915 843d 7528 203d aee6 eabd ae8d 49be
0.04280044 0.07483683 -0.091768906 -0.16431479 -0.029107885 -0.12638456 0.02930935 -0.121009015
0.0037065693 -0.06630406 -0.047390487 -0.045599703 0.064494915 0.039101083 -0.1146978 -0.19682953

linear.weight f4 [5, 4096]
00000000: 507c 26bc dab0 f2bb 9854 cebb b360 5cbb
00000010: e7db 4a3c 7592 fe3b 9d5e 103c 7331 b43b
00000020: 5f5e 6b3c f3c9 9a3c eb87 343c ec46 7f3c
00000030: 48cd 50bc 7120 c33b 4277 053c f7ff 37bc
00000040: 6eb9 e5bb 3fc4 973b 09f9 a33c baef c33c
00000050: 7a23 183b 7343 033d d8f9 8e3c c50b 933c
00000060: 5086 3a3c c3be d83c 20b0 d23c 1270 7c3c
00000070: 6f9e ccba 2048 e13b db5a 8ebb 8ad6 83bc
00000080: 841f 163c 244a 8a39 e4b5 c6bb 5fe4 ddbb
00000090: 86e5 043d 3f36 163d cb6b c13c d958 ef3c
000000a0: fc6a 273d 632c 5a3c 6b3e 2d3c da8c 2bba
000000b0: f628 6c3c 2a6b a2bb db57 c0bb 4770 8f3b
000000c0: be2c 403c f4ac 123c 531e 62bb f37f 17bc
000000d0: 21d5 83ba b014 0a3c a722 5f3c e3f2 113d
000000e0: 334f 8a3c 925a 053b 0c7f d13b 917f 103c
000000f0: a984 1cbb 0b0a 2fbc 6a21 633c c2a2 1cbc
00000100: 0c49 693c c90b 23bc f197 403c 6eed 74bb
00000110: cb9e b63c 14b6 ad3c b114 863c 4678 5e3b
00000120: f295 94bc 2434 29bb f2ed a53c 8d02 3ebc
00000130: 3236 293b 9fb6 99b9 1ee3 583c e940 47bc
00000140: 401f 60bc 567f c9ba bdc3 23bc bfb2 55bc
00000150: f4b0 d3bb 1168 323c 8f75 90bc c2d0 63bc
00000160: 2eb2 0ebd 72b8 17bd 917f 14bd 6db3 5ebb
00000170: b98f 983b 1751 97bb 2963 5dbb 23de d03b
00000180: 9590 2fbc c519 89bc 73b0 6cbc 5c6a 0bbc
00000190: 62fb b4bc 89e8 aaba 5478 48bc ab82 acbc
000001a0: dbac f5bc ded8 89bc aab2 c4bc 1038 18bd
000001b0: 4fa7 4fb9 3dbb 44bc b1f7 4bbc a8e6 5c3a
000001c0: 416f 06bc 562c aabb f734 623c b1d1 ea3c
000001d0: f80c 8f3c 6c5c 9dba b8d2 53bc 07ce 62bc
000001e0: 05ef 63bc b2fe a8bc 9583 363c 7282 df3b
000001f0: 8593 69bc d0f4 56bc dcb6 dabb 2b39 64bc
00000200: 0e70 5db9 f0dd bc3c c397 833c 6d35 2e3d
00000210: 6f5d d23c 33a5 58bb 9879 9abc 62b9 e2bc
00000220: bfa3 57bc e71c 80bc 4f3e 073c a6f2 bc3c
00000230: eb67 a63c 78c0 583c d16f 143c 425a 0fbc
00000240: ccad 12bc c88c 6d3c 0676 8c3c c795 b93b
00000250: a00b ef3c eee5 fcbb fa3c b2bc 2790 05bd
00000260: dc11 88bc 36b8 9dbc de77 723c f79e 8e3c
00000270: 71f8 1b3c ec3b 933c ad34 86ba df59 5cbb
00000280: 123a 9abb ab31 2e3b 4427 233b 6374 2a3c
00000290: d9e4 f7bb 5453 aabc 3821 b4bb 907a 33b9
000002a0: 6717 923b e63c b4bc 8a68 c6bb 78b4 943c
000002b0: 3f27 093d 7caa f73b e614 af3c 2b21 273c
000002c0: c5d5 413c 79eb 8e3a 0f5d 323c 48f2 35bb
000002d0: 8991 78bb 5e68 a1bc 4554 0ebd c0fb 15bd
000002e0: 0d72 03bd 87f3 d5bc 831b c7bc 08c0 463c
000002f0: c6fc 163c b227 963c e5e9 38bb fc20 de3b
00000300: e56f 663c 3bc6 453c 11dd 8eba 4469 dabb
00000310: 7d15 15bc efb4 a2bb 6782 983b 7abe 0c3c
00000320: 3173 5c3c 2ccd 483c 21e0 8aba e4dc 8dbb
00000330: e30e d7ba 04bc 63bb 6c75 923c 4eeb 80bc
00000340: d176 953a bfec 84bc 2270 93bb 9c35 81bc
00000350: 2cff c0bc 53cf d5ba 1600 34bc 5f7a 273b
00000360: e07a dd3b 0773 2abc dea0 eabb 6a0b a7bc
00000370: b54f 4a3c d769 5e3c 9b44 a2ba ce5e 6cbc
00000380: 42a7 873c a701 533c d027 f13b e871 0abb
00000390: 14c9 fab7 2559 d33b 68e2 993c 072d bf3c
000003a0: d15e ba3c ea35 963c d5c0 e1bb ec00 94bc
000003b0: 5a7a 5ebc 7f8a 42bb 3d66 b23b f444 beba
000003c0: f76b a23c 3278 4a3c ae7c 833c 81c5 36bc
000003d0: 0418 eb3a b57b 67bb e879 07bc 6430 a73b
000003e0: 49dd adbc fc9c b73b 9a0b 2ebc 7d4f 94bc
000003f0: f9fe 0c3c 4ef0 633c a85b 823c c4e2 503c
-0.010161474 -0.0074063363 -0.0062967055 -0.0033626973 0.01238153 0.007768924 0.00881162 0.005499059
0.014365762 0.018895125 0.0110187335 0.015580874 -0.012744255 0.005954795 0.008146109 -0.01123046
-0.0070106303 0.0046315487 0.02001621 0.023918021 0.0023214505 0.032046746 0.01745312 0.017949948
0.011384562 0.02645815 0.025718749 0.015407579 -0.0015611182 0.006875053 -0.004344327 -0.016093511
0.009162787 0.0002637665 -0.0060641635 -0.0067716087 0.032445453 0.036672827 0.02361097 0.02921717
0.040873513 0.013316247 0.010573964 -0.0006544121 0.014414063 -0.0049566226 -0.005869848 0.004377398
0.011729417 0.008952368 -0.0034502938 -0.009246814 -0.0010058024 0.008427784 0.013619102 0.035632025
0.016883468 0.0020348174 0.006393319 0.008819477 -0.0023882783 -0.010683547 0.013862947 -0.009560289
0.014238607 -0.00995154 0.011754976 -0.0037372964 0.022292515 0.021204986 0.016367288 0.00339462
-0.018137906 -0.0025818432 0.020255063 -0.011597288 0.0025819656 -0.00029318497 0.013237743 -0.012161472
-0.013679326 -0.0015373032 -0.009995398 -0.013043105 -0.0064603034 0.010889069 -0.017634181 -0.013904752
-0.034837894 -0.037041135 -0.03625447 -0.0033981458 0.004655805 -0.004617821 -0.0033781028 0.006374137
-0.010715623 -0.01673592 -0.014446366 -0.008509245 -0.022092525 -0.0013039272 -0.01223572 -0.021058401
-0.02998965 -0.016827043 -0.024010975 -0.03716284 -0.00019803386 -0.012007532 -0.012449191 0.00084267044
-0.008205236 -0.0051932735 0.013806573 0.028664442 0.017462239 -0.0012005693 -0.012928657 -0.013843066
-0.013911967 -0.02062926 0.01113977 0.00682097 -0.014256363 -0.013119891 -0.0066746306 -0.0139296455
-0.00021117946 0.023055047 0.016063577 0.04253142 0.025679318 -0.003305745 -0.018856809 -0.027676288
-0.013161599 -0.015638782 0.008254602 0.023064923 0.020313224 0.013229482 0.009059862 -0.0087495465
-0.008952569 0.014498897 0.017146122 0.005663607 0.029180348 -0.0077178394 -0.021757592 -0.032608178
-0.016610079 -0.019252878 0.014799086 0.017409785 0.009519682 0.017972909 -0.0010239087 -0.0033622903
-0.0047066296 0.0026579897 0.002489523 0.010403725 -0.0075651226 -0.020791687 -0.005497124 -0.00017116428
0.004458356 -0.022001695 -0.0060549425 0.01815246 0.033484694 0.007558165 0.02137227 0.010200779
0.011830752 0.0010903917 0.010886445 -0.002776282 -0.0037928543 -0.019703086 -0.034748334 -0.03661704
-0.03209119 -0.0261171 -0.02430511 0.012130745 0.009215539 0.018329475 -0.0028215584 0.0067788344
0.014064764 0.012071188 -0.0010899623 -0.0066653807 -0.0090993615 -0.0049654166 0.004654217 0.008590335
0.013455198 0.012255948 -0.001059536 -0.0043293107 -0.0016407635 -0.0034749517 0.017878257 -0.015737202
0.0011403208 -0.01622617 -0.0044994513 -0.015772633 -0.023559175 -0.0016312398 -0.010986349 0.0025555117
0.0067590326 -0.010403401 -0.00716029 -0.020391185 0.012348105 0.013575039 -0.0012380065 -0.0144269
0.016559247 0.012878812 0.0073594823 -0.0021125022 -2.9895957e-05 0.006449836 0.018784717 0.0233369
0.02275029 0.018336255 -0.0068894424 -0.018066846 -0.013578976 -0.00296846 0.0054443167 -0.0014516399
0.019826872 0.012357758 0.016050663 -0.011155487 0.0017936234 -0.0035321538 -0.008268811 0.005102204
-0.021223681 0.005603431 -0.010622883 -0.01810431 0.008605712 0.013912274 0.015912846 0.012749378

linear.bias f4 [5]
00000000: a63d 52bb cebb 513d 4ab2 97bb 7c0e 18bc
00000010: 59f4 5fbd
-0.0032080202 0.051204495 -0.004629408 -0.009280797 -0.054676387
