image_similarity/deep_decoder.pt (torch, 702421 bytes, 10 tensors)

t_conv1.weight f4 [256, 128, 2, 2]
00000000: ae4b 32bd 817c 183c 44b8 fbbc 50a6 a5bb
00000010: ca20 093e debf 2ebd b4d3 8bbc 33fa 3dbc
00000020: 4d01 acbc 3eb1 18bd 1d7e 0dbd 51f7 d4bc
00000030: 2e16 88bc bd9f f83b 451a 38bd 8134 a23c
00000040: 25e1 a03c 330f dabc 21d9 673c a212 abbc
00000050: 0fc7 11bd a40f 123e 71c3 26bd 1c37 273b
00000060: f8ac 903d ddf9 00bd 5af4 a23d c12c 263c
00000070: cf4e 3bbc 8aca 09bc 34dd 42bd 87ff 6f3e
00000080: 8a13 3fbc 0b4a 273d 6db2 c6bc ae57 f73c
00000090: d3b1 abbc 4ac8 443a 8e9c e53c 344f bebd
000000a0: 94c4 9cbc 6d9e 61bc 741e 06bd cc9c 1d3e
000000b0: 59d3 ce3d 19fc 893d 4d60 b63d 94b1 85bc
000000c0: 1f6b 9bbb 8a7e 87bc 4f43 253e f44d 893d
000000d0: 6831 2d3b 5765 883d 0230 a53c cbc2 2cbc
000000e0: 457d 41bd 5d2c 7c3d 30b5 983b 9019 b9bb
000000f0: e13e 10bd 5e64 883d 5c8b 4b3e 1ff0 1cbd
00000100: 96f2 333c b956 1dbd 2ad7 3c3c 011b 69bc
00000110: ac85 56bc f333 d8bc 99b6 07bd b0ec a9bd
00000120: f98d abba e99d b43d bc3f 98bb efca a6bb
00000130: 2473 e13b f54e 40bc 887c 7b3d 768b b63c
00000140: e8b0 0cbd 746a e63b 8ce5 d93d 1574 16bd
00000150: 4637 0abc f456 09be e8d9 b33c ba83 0f3d
00000160: 1776 45bc d804 8f3c 4d13 1abc ca9b c83c
00000170: fe0a d03d c5c9 81be bc58 7cbc b5f1 0ebd
00000180: 05ce 17bd 6e97 8e3c e21c 4b3c c05d 9fbc
00000190: 9f9d 24bd 0da0 c2bc b36a bf3b 8f98 873d
000001a0: 7a17 cabc 03e1 7d3c 6820 b33c 3c7c f63c
000001b0: adac b7bc c316 833c ea20 133d ceb0 9c3d
000001c0: f65e d6bd 4cb3 0bbd 2850 583c a12b 09b9
000001d0: 4b11 f63d a353 273d 3ca9 c33d 3eb1 e3bc
000001e0: ee67 b6bd c71b c83d a41a 773d d9c9 4f3d
000001f0: 24e6 373a df5c b53d dd29 2cbe 1353 9e3b
00000200: 6749 cfbc 5e15 4b3c 1e83 05bc 4bbe 0f3d
00000210: c473 013e 5378 b9bb 67dd 10bd 3651 363d
00000220: b0b4 73bd a0de d3bc d71e 06bd 185b 0ebd
00000230: 3247 08bd 8764 b73c 5810 1abb 018d 9e3d
00000240: 5637 2ebd cd3a 9d3c a0cd b23a ee9b 7f3d
00000250: 8b6d 883c ff44 5d3e 084d 24bd 81de 4c3d
00000260: 43aa 7a3d e034 a83c 1520 1a3e 575f c1bc
00000270: 4469 adbb 7e64 a03c 3d70 3fbd 3533 353d
00000280: b374 69bc 46ce 83bc 08e6 a83b 996d dcbb
00000290: 25f4 8f3d 6b29 db3d 1cf0 a4bb 76ff 303e
000002a0: 6e8b 80bc d94c ddbc eb85 db3b 1a63 413b
000002b0: ff28 09bd 729a f8bd 5ca0 8b34 f3ab d93d
000002c0: 06a6 05bd ac69 813b 4358 45bc 6f8a 10bc
000002d0: f719 3a3c 9f8f 9cbd f7ea 2ebd 8530 0fba
000002e0: 09c0 133c 2ad1 3538 be06 863c bf64 17bd
000002f0: b997 43bc b0d5 903d e6f8 afbc 2a46 963d
00000300: f3d6 e4bc 3078 163e 714c 9dbd 1898 9b3d
00000310: 1bb4 443b 36f0 703c fc2d 7a3d 610a d23d
00000320: 8ed9 8ebc 30fc 093e cf2e 123c 23dc 83bc
00000330: 926d afb9 4acd f3bc 2695 253c 3285 cbbc
00000340: 6b38 9eba 8e02 a53d f19e a1bc 9800 77bb
00000350: 028e 8f3d 93cb fd3d d39d 84bc 4cd2 743c
00000360: 9ecd 0e3d f551 25bd d942 5fbc 9640 093d
00000370: 70fa 75bc c347 843c db0e 033d f545 37bd
00000380: 054f 10bd c096 03bd 63d8 2dbd b494 c0bc
00000390: 1124 293d 85ca 933d a4c8 0cbd f830 5e3c
000003a0: ab4c 473d c167 31be b4db e0bc 9b1a 2b3d
000003b0: 3ec0 2d3d 38d4 ba3d 1d8c 7fbd 94fe 813d
000003c0: d54b bc3c d12e 0dbb 4fe4 ba3d 3083 743c
000003d0: 8877 203d bac0 523c f573 b6bd 04cc 123c
000003e0: b5bd 09bd a4df 9fba 5ef9 653c beed 653c
000003f0: f83e 3e3b 7789 5dbb 2518 453d d68d 95bc
-0.043529205 0.009307028 -0.030727513 -0.0050552264 0.13391414 -0.042663448 -0.017068721 -0.011595297
-0.020996714 -0.037278406 -0.0345441 -0.025996836 -0.016612139 0.0075874017 -0.044946928 0.019800426
0.019638607 -0.026618576 0.014150889 -0.020882908 -0.035590228 0.14263779 -0.04071373 0.0025515025
0.07064241 -0.03148829 0.079567626 0.010142506 -0.011432364 -0.0084101055 -0.047574237 0.2343732
-0.011662373 0.040842097 -0.024255002 0.030193176 -0.020958817 0.0007506652 0.028028753 -0.092924505
-0.019136705 -0.013770682 -0.032743886 0.15391845 0.10098905 0.06737537 0.08905087 -0.016320027
-0.0047429944 -0.01653983 0.16138957 0.067043215 0.0026427153 0.06659954 0.020164493 -0.010544489
-0.047238607 0.061565746 0.004660271 -0.0056487992 -0.035216216 0.066597685 0.1987738 -0.038314935
0.01098313 -0.038412783 0.0115259085 -0.01422763 -0.013093393 -0.026391959 -0.033133123 -0.08297098
-0.0013088576 0.088191815 -0.0046462696 -0.0050901095 0.006880181 -0.011737575 0.06139806 0.022283297
-0.0343484 0.007031733 0.10639486 -0.0367318 -0.00843603 -0.13412076 0.021954492 0.035037734
-0.012052081 0.017458364 -0.009404016 0.024488349 0.101583466 -0.2534925 -0.015402015 -0.03489848
-0.03706171 0.017406192 0.012397023 -0.019453883 -0.04018938 -0.023757959 0.005841577 0.06620895
-0.024669398 0.0154955415 0.021866038 0.030088536 -0.022421205 0.016002065 0.03592006 0.0765091
-0.10467331 -0.034106538 0.0132027045 -0.00013081591 0.12015017 0.040851247 0.09553763 -0.027794477
-0.08906542 0.09770923 0.06032814 0.050729606 0.00070151896 0.088556044 -0.16812845 0.0048316806
-0.025303556 0.012395231 -0.008148937 0.035093587 0.12641817 -0.0056600957 -0.035367396 0.044511043
-0.05949849 -0.025862992 -0.032744255 -0.034754843 -0.033271022 0.022386802 -0.0023508277 0.07741738
-0.04253324 0.019193077 0.0013641603 0.062404566 0.016653797 0.21608351 -0.040112525 0.050016884
0.06119753 0.020533025 0.15051301 -0.023605032 -0.0052920897 0.019579168 -0.0467379 0.044238288
-0.014249015 -0.01608957 0.005154375 -0.0067269322 0.07028989 0.10701259 -0.005033506 0.1728495
-0.015691485 -0.027014183 0.006699314 0.0029508532 -0.033486363 -0.12138833 2.6007444e-07 0.106285
-0.032629035 0.0039493646 -0.012044969 -0.008822068 0.01135873 -0.07644581 -0.04270455 -0.0005462247
0.009017953 4.3348562e-05 0.016360637 -0.036961313 -0.011938029 0.07072008 -0.021480989 0.073376015
-0.027934527 0.14694285 -0.07680596 0.07597369 0.0030014578 0.014705708 0.06107901 0.10255886
-0.017437723 0.13475108 0.008922293 -0.01609618 -0.00033460237 -0.029760975 0.010106361 -0.024843786
-0.0012071257 0.08057128 -0.01972911 -0.0037689563 0.07009508 0.12392344 -0.016188538 0.014942717
0.03486406 -0.040361363 -0.013626778 0.03350886 -0.015013322 0.0161475 0.03199659 -0.04474445
-0.03523161 -0.03212619 -0.04244269 -0.023508407 0.04129416 0.07216362 -0.034371033 0.01356148
0.0486571 -0.17324735 -0.027448513 0.04177342 0.042419665 0.09122509 -0.06238948 0.06347385
0.022985378 -0.0021542797 0.09125578 0.014923856 0.039176494 0.012863332 -0.08908836 0.008959774
-0.033628184 -0.0012197387 0.014036505 0.014033733 0.0029029232 -0.003380386 0.04811873 -0.01825611

t_conv1.bias f4 [128]
00000000: f4f3 883b 8ee1 12bd 7fb0 33bc e704 3e3b
00000010: c23c 923c 6699 2c3c 59e2 50bc 0364 983d
00000020: 6a19 74bd cd3a 243d 8126 72bc 5457 2cbd
00000030: c3c8 693d 860c a73c c34b ad3d b32a 16be
00000040: b03c aabc b6fa 98bd 70a2 263d 0b6e 12be
00000050: 59ec d1bd 17bd 9bbd e16c 3abd cdf8 933c
00000060: 3263 b4bb 971a 8dbc 0852 ffbc 3eb3 ad3d
00000070: dec3 31bd cf64 623d 814e 27bc e9c9 27bd
00000080: 2dc1 593d f886 e63c d716 223c 1b82 d03d
00000090: 7bf1 a43b f2eb babc 16b8 0e3d d2d3 023d
000000a0: c0d1 e63c 1c95 8fbc 9b9d bebc 0472 b7bd
000000b0: 0d25 63bd d55f 1cbd 97e4 35bd 45f4 043d
000000c0: f97b a2bc 55cb 0bbd bea1 5ebd 7d20 48bc
000000d0: ff2b a73d 6ddb f0ba 640f a0bc f3ba 18bc
000000e0: 3ed8 713c 98c4 7cbb d188 143d e805 9cbd
000000f0: 21e5 c03c 90d8 c13d 20da a13c bdc2 35bd
00000100: 5806 4a3b 686e 6cbb bcba dcbc b51f cd3c
00000110: f0d8 c6bc 7ab6 6f3d 3db2 a9bc 2395 413d
00000120: d55a a1bc b08e 6fbc 265c 31bd b747 e13c
00000130: 348c 4ebd 101c 15bd 3197 483d c8b2 4ebd
00000140: 524c f9bc e61f fbbd 4fc5 e93d 86eb 32bd
00000150: 09cd 4bbd 2f96 803d 9e84 6c3c f85f 3d3e
00000160: a4a7 b53d 2af9 24bc 6b60 b63d 5ec6 50bd
00000170: 0e64 5f3c 35f3 74bb 5139 9bbd 64d2 983d
00000180: b9d5 b93d 3246 b13c 2a3b 133d 8c36 1abd
00000190: 2378 ab3a c726 c9bd 24bd 75bd 28a5 41bc
000001a0: 7c05 81bd c9f7 4abc ed24 633d 479a 28bd
000001b0: c4c2 903d b9f4 1bbe 20b8 eebd 285f cebc
000001c0: e8b8 c4bc ead4 84bd 57d3 29bd 81b4 59bc
000001d0: 5c50 21bd b758 19bd d02a bdbc dcea 33bd
000001e0: 6b4e 8b3c 7664 4c3e 9c8a 85bb 3831 2fbe
000001f0: 81e8 b6bd a7e9 503d a2f9 e6bd 8fa3 1ebd
0.004179472 -0.035859637 -0.010967373 0.0028994621 0.017851237 0.01053462 -0.012749278 0.07440951
-0.05959455 0.04009514 -0.014779688 -0.04207547 0.057076227 0.020391714 0.08461716 -0.14664726
-0.020780891 -0.07469694 0.040682256 -0.1429979 -0.10250158 -0.076044254 -0.04551399 0.018062973
-0.005504989 -0.017224593 -0.031167045 0.08481453 -0.043399684 0.05527192 -0.010211588 -0.04096404
0.053162742 0.02814053 0.009893141 0.10181066 0.0050336695 -0.022817586 0.034843527 0.03194029
0.028176188 -0.017527156 -0.023268512 -0.08957294 -0.055455256 -0.03817733 -0.044407453 0.032459516
-0.019834505 -0.03412946 -0.054353468 -0.012214777 0.081626885 -0.0018375941 -0.019538589 -0.009321916
0.014761029 -0.0038569327 0.03626329 -0.07618314 0.023546757 0.09465134 0.01975733 -0.04437517
0.0030826535 -0.003607655 -0.02694451 0.025039533 -0.024273366 0.058523633 -0.020714873 0.04726137
-0.019696632 -0.014621422 -0.04330077 0.027500017 -0.050426677 -0.036403716 0.048972312 -0.050463468
-0.0304319 -0.122619435 0.11414587 -0.043681644 -0.049756084 0.06278645 0.014435915 0.1849364
0.088698655 -0.010069171 0.08905109 -0.050970428 0.013634695 -0.0037376408 -0.075792916 0.07462004
0.090739675 0.021639917 0.035945095 -0.037649676 0.0013082068 -0.09821849 -0.05999483 -0.0118191615
-0.06299874 -0.012388178 0.055455137 -0.041162755 0.070683986 -0.15230073 -0.11656213 -0.025191858
-0.024013951 -0.06485923 -0.041461315 -0.013287664 -0.039383277 -0.03743812 -0.023091704 -0.04392515
0.017005166 0.19960198 -0.0040753614 -0.17108619 -0.08931065 0.05100408 -0.112780824 -0.0387302

t_conv2.weight f4 [128, 64, 2, 2]
00000000: 8854 7d3d 3eb9 b0bc 0074 fb3c d955 42bc
00000010: af95 3b3d 79cf ad3a e0fc 213d bce5 36bd
00000020: 1aaf c13b 6c8a 33bc d1f0 223d 5bc9 13bc
00000030: 7430 7c3c 86cb dc3c 331c 943c 8d04 f93c
00000040: 256a 1dbd 60b3 dcba bdfd cd3c f77b 3e3d
00000050: 9445 66bc a638 253d 5ffc 243d 8c91 ee3c
00000060: d10c f73c 4c8c 0bbc 44b5 8a3d 26aa 32bc
00000070: 5976 e0bc 5b56 55bd 0641 4d3d e1da 91bc
00000080: 1bb2 ccbc d5da a1bc d5e0 573d 3dd1 fd3c
00000090: 107b f43c 63a9 e03b 473c 6a3d e4f2 3fbc
000000a0: 1bed e03b e7ea 0dbc cb42 46bd 885e 7abc
000000b0: 9e75 b93c 8a27 b4bc 566b d7bc 6004 0bbd
000000c0: ca62 43bd 63e4 2d3b 9cdd 4bbc 4d6d 003d
000000d0: a641 51bd d0df 4a3c c3c3 77bc a950 17bc
000000e0: 3b6d fbbc 623b 0bbd 9078 c7bc 39f9 afbc
000000f0: 7861 82bb 9ec3 35bd 35cc ee3c cee7 c3bc
00000100: ca72 8e3c c594 643d c092 5d3d dd1b 46bc
00000110: 71b9 18bd ebac 38bc ca53 19bd e554 803c
00000120: 4fc1 0ebc ef6b fb3c d1ca 32bd 72ea f3bc
00000130: 597d e43c 1776 e2b9 ac35 d4bc 268f 0c3d
00000140: 9a8b e2bc 5cb8 243c 204c 6d3c 4db6 5b3d
00000150: 38e1 c13c d2bf 763c efd0 0d3d 77df f9bc
00000160: 42ae 1dbd cfab 9e3c b7f9 e93c d335 cb3c
00000170: cbd4 d6ba f5f1 e23c f9a5 64bc 06ae d7bc
00000180: d158 25bc 36cd 6f3a 3617 5a3d 13b4 98bc
00000190: 8885 80bc 3520 fabc 1f79 363d 0415 88bc
000001a0: 3732 d7bc d4a4 d2bc ea08 b63c bfbb 243d
000001b0: c541 713d 7e57 1fbc 3627 a1bc 006b 813d
000001c0: e2bd 34bc 92fb f63c 8047 e3bc 68c0 a83c
000001d0: a539 cdbc ed68 bbbc 1ef0 b6bc 5ac9 86bc
000001e0: 2a24 5ebb a2b5 d8bc 473f 893c 5f7a bdbb
000001f0: ac52 9e3b 078a c9bc a4c5 9dbc 0918 123d
00000200: d046 c43c c7e2 48bc 4309 c6bc a9be 24bc
00000210: 3619 9b3c 66ca 253c 684f 353d bb54 da3c
00000220: 3540 e43c f197 f43b 92b8 443a 9086 06bd
00000230: a52b 973d 9c70 81bd 494e 4fbc 82d4 3bbd
00000240: db56 97bc 9301 243d e783 c2bc cbb8 e1b9
00000250: d573 873c f74a 6bbd 7b07 a1bc 0528 79bd
00000260: f71d 30bd 3446 b0bc ed40 373c 565a ba3c
00000270: 3fe3 25bd 17ec 1dbd 20e5 8d3c de52 01bd
00000280: 9e38 44bc 7bea 1abd 83ca c83b 29ce 243d
00000290: e582 f43c ef75 c7bb add9 14bd 7031 5238
000002a0: 5046 563c 8e3a 2dbd 8306 0cbd 883c cd3c
000002b0: 659e e0bc 4dd5 21bc 11a1 cebc b746 b2ba
000002c0: 50dc ff3a e229 ef3c c02d 833c 4019 013d
000002d0: bc2c f8ba 23e1 113d fd19 4b3c 20a9 11bd
000002e0: b397 863c 21c7 d63b 18de 943c 5a82 4ebd
000002f0: d951 483c a221 c0bb c83c 0bbd 1180 563c
00000300: 82f8 b43c cda5 01bd 3b95 8abc 799c 473d
00000310: 3133 7ab9 1610 3e3d 7efc 41bd 1a32 443d
00000320: 5389 fbbc eb63 32bd beee 7bbd 69dc a9bc
00000330: d0ed 4dbd b380 d8bc b610 c1bc ca44 1cbd
00000340: ee74 24bd 0169 1bbd 4c60 513d 3a22 533c
00000350: cdc7 5b3c ce8c c6bc 4903 72bc af69 413d
00000360: 8966 cc3c 73cf a6bc a3c1 42bd 8f5b 2c3d
00000370: c335 1b3d ed2a 9fbb 69ba 463c e2ed c8bc
00000380: f9ce 36bc ae74 febc 7f64 193c 68e4 3b3d
00000390: 3bc4 02bc 91d3 3abb 9b07 9ebc 5bc0 2a3d
000003a0: 1a01 f23c 99ad 52bc c899 653d 137d 24bd
000003b0: 5b74 9bbc 1877 363d aada 33bb 627f 13bd
000003c0: 54e6 f33c 2579 4abc 7cdf e6bc 59ea 7bbd
000003d0: a265 6cbc c220 b1bc e33b 12bd c696 fe3b
000003e0: bf23 953c 13d9 6ebd 6214 1a3d d79e 39bd
000003f0: e013 433d 3874 efbc 0f43 2fbd fb87 0abd
0.061848193 -0.021572705 0.030694962 -0.011861288 0.045797046 0.0013260684 0.0395478 -0.044652686
0.0059107663 -0.010958295 0.03978044 -0.009020175 0.0153924115 0.026952516 0.018079853 0.030397678
-0.038431305 -0.0016838126 0.025145406 0.04650494 -0.014054675 0.040337227 0.040279742 0.029122137
0.030157479 -0.008517336 0.06772855 -0.010904824 -0.027400183 -0.052084308 0.05011084 -0.017804565
-0.024987271 -0.019757668 0.05270465 0.030983562 0.029843837 0.00685613 0.05718639 -0.0117156245
0.0068642027 -0.008661962 -0.048403542 -0.015281327 0.022639092 -0.02199151 -0.026296299 -0.03393972
-0.047701634 0.0026533834 -0.0124429725 0.031354237 -0.051087998 0.012382463 -0.015122357 -0.0092355395
-0.030691734 -0.03399218 -0.02434948 -0.021481143 -0.0039789043 -0.04437601 0.029150108 -0.023914244
0.01738872 0.05580594 0.05409503 -0.012091604 -0.037286226 -0.011271696 -0.037433423 0.01566548
-0.008713081 0.030691115 -0.043650452 -0.029774878 0.027891802 -0.00043194063 -0.025904499 0.034316204
-0.027654458 0.01005372 0.014483482 0.053640652 0.023666963 0.015060382 0.034623083 -0.030502064
-0.038496263 0.019369034 0.028561456 0.024805939 -0.0016390322 0.027703265 -0.013955587 -0.026328098
-0.010091976 0.0009147705 0.053244792 -0.018640554 -0.015688673 -0.030532936 0.044549104 -0.016611584
-0.026269061 -0.025713362 0.022221047 0.04021811 0.058900613 -0.00972545 -0.019672018 0.06319237
-0.0110316 0.030149255 -0.027744055 0.020599559 -0.025051901 -0.022877181 -0.022331294 -0.016453434
-0.0033896067 -0.026453797 0.016753806 -0.00578241 0.0048316326 -0.02460195 -0.019259281 0.035667453
0.023959547 -0.012261099 -0.024174338 -0.010055223 0.01893292 0.010119056 0.04426518 0.02665173
0.027862648 0.007464402 0.000750431 -0.032843173 0.073813714 -0.06320307 -0.012652942 -0.04585696
-0.018474033 0.040040564 -0.023744537 -0.00043053026 0.016534725 -0.05744454 -0.019656887 -0.06082918
-0.042997327 -0.02151785 0.011184913 0.022748154 -0.040499922 -0.03855523 0.01732117 -0.03157317
-0.011976389 -0.037821274 0.006127657 0.040235672 0.029847572 -0.006087057 -0.036340404 5.0113944e-05
0.013078287 -0.04229217 -0.034185898 0.025053278 -0.027419278 -0.009877515 -0.025223287 -0.0013601397
0.0019520614 0.029194776 0.016013026 0.03151822 -0.001893423 0.035615098 0.012396333 -0.03556168
0.016429758 0.0065544997 0.018172309 -0.05041728 0.012226545 -0.0058633843 -0.033993512 0.013092057
0.022091154 -0.03165226 -0.016916862 0.04873321 -0.00023860928 0.04640206 -0.047359936 0.047899343
-0.03070513 -0.04355232 -0.06150698 -0.020734983 -0.050275624 -0.026428556 -0.023567539 -0.03815154
-0.040150575 -0.037941936 0.051117226 0.012886578 0.013414335 -0.024237063 -0.014771291 0.04721993
0.024951236 -0.020362591 -0.047547948 0.042079505 0.037893068 -0.004857412 0.012129405 -0.024527494
-0.011157745 -0.031061497 0.009362339 0.045872122 -0.007981355 -0.002850745 -0.019290736 0.04168735
0.02954154 -0.012858772 0.05605486 -0.040158343 -0.018976381 0.04454717 -0.0027443566 -0.036010154
0.029772915 -0.012357985 -0.028182738 -0.06150279 -0.014428528 -0.021622065 -0.035701644 0.0077694384
0.018205522 -0.058312487 0.037617095 -0.045317497 0.047626376 -0.029230222 -0.04278856 -0.033821087

t_conv2.bias f4 [64]
00000000: ea06 84be d4ff ef3c 1576 343e 73c3 9bbc
00000010: 8682 583e 7ed5 19be ba28 91be d9a3 0dbe
00000020: 3527 22be 7181 abbe c553 3cbe 216a e3bc
00000030: da6b 96bc c5f5 7cbd 91ef 683d 3638 e1be
00000040: 3fe8 89be 739d 873b a19c 81be c6e9 2abe
00000050: 5772 6fbe d471 dabb adcc 043c da04 b6bd
00000060: f772 13bf aa57 01be e906 25bd 6791 a9bc
00000070: 3d46 0cbe 96f3 5fbe 5748 43be 64fb bbbd
00000080: cfec bf3b 44b3 6cbe 687b 94be eb41 8dbd
00000090: ad32 eabd f9a7 abbd 509e fcbd 604c 5bbd
000000a0: 11f9 1cbe 06f6 f1bd 9b89 ecbc 87d9 93be
000000b0: 9186 313e 35ec 8f3e afbe 89be fe67 05be
000000c0: d639 2fbe 270b e8bd cb4c e8be 9080 e7bc
000000d0: 6d24 3ebe b804 15be a8c0 bebd 0755 d1bd
000000e0: ccb1 43bd dca0 c9be d15d 65be 0fe4 cd3d
000000f0: a89a b8bd 217d f03c 9c20 94be 002e a03d
-0.25786525 0.029296793 0.1762317 -0.019014096 0.2114354 -0.15022847 -0.28351384 -0.13832034
-0.15835269 -0.33497193 -0.1839133 -0.027760567 -0.018361975 -0.06175782 0.056869093 -0.43988198
-0.26935002 0.0041386425 -0.2531481 -0.1669074 -0.23383461 -0.0066664014 0.008105439 -0.08887644
-0.575973 -0.12631097 -0.040289793 -0.020699216 -0.13698669 -0.21870264 -0.19070564 -0.09178808
0.005857087 -0.2311526 -0.29000401 -0.068973385 -0.11435447 -0.083816476 -0.12334883 -0.053539634
-0.15329386 -0.11814503 -0.02887421 -0.28876898 0.1733649 0.281099 -0.26903293 -0.13027951
-0.17111906 -0.11330252 -0.45371088 -0.028259546 -0.18568583 -0.14552581 -0.0931409 -0.10221296
-0.047776982 -0.39380538 -0.2239907 0.10053264 -0.09013873 0.029356541 -0.2893113 0.07821274

t_conv3.weight f4 [64, 32, 2, 2]
00000000: e212 173e 8cf6 b93c 130b 9dbc 4c76 333d
00000010: 57c3 8fbd 2b1c 27bd 92fc 743d b313 ddbc
00000020: 845b 4b3d 05b4 04bf d4af 673d 7f60 6dbd
00000030: 9cce 073e f868 1bbd d16e 9abd 306f f93d
00000040: 47e3 1f3e 6248 65be 4a4d 4bbd c31d 23be
00000050: 6109 bc3a 0ecd fdbd cf91 88bc 55df 96bc
00000060: 5f2e dc3b 9805 11bd c352 7d3d 5afd 2f3d
00000070: e7f6 2cbe acec ba3d afdc 7b3e c526 ceba
00000080: aa3d dbbd 46b7 473e 5404 5bbd 263a c4bc
00000090: 836b ecbe 1e87 1d3d c4af cebe 69eb 57bd
000000a0: e322 813d a1e4 af3e 800f 43bc 91d8 52bc
000000b0: 020a a73e 5707 3b3e d1b7 0fbc d23a 06be
000000c0: ba61 4d3e 20e6 36bd d178 863d 2311 b83c
000000d0: a12b 623d e2da 973d 2092 a93c 6428 a5bc
000000e0: 1fe7 883e 9f01 543e d82b 67bc 4a21 123c
000000f0: b522 ac39 79aa 84bd 53fe 09bd 1179 4ebc
00000100: 8f60 293d e40d a13e c238 62bd c3e5 af3c
00000110: 6643 2e3e e352 95bc 8f94 58bd 5b97 49bd
00000120: 4b4e 0fbe 3565 11bc c066 a8bd 8e11 e43a
00000130: fc09 5e3e c844 cd3d 1559 b63d 50e3 e43d
00000140: 9627 10bd 2135 113c 8a3c 7b3d 1080 063d
00000150: cfdd 7fbb 6458 073e 8d8e 813b 7e97 a43c
00000160: 0291 dfbd b551 86bd 8278 3dbe 117f fbbd
00000170: 7cb0 613e 7f7b 19be a9fa 2f3d 6a27 92bd
00000180: 6ffc 273e 6ce4 1a3e 67c7 023d 7ced 2bbb
00000190: 40ab 573e f76b 08be 5134 9a3d 900f d63b
000001a0: cfa4 fbbc 9e1e b43d 6f68 79bd 973a 2dbd
000001b0: fa4e 3e3e 2f79 ab3d 497d 5bbc f0bb fdbc
000001c0: 1e71 4d3d b898 b6bc ad2d 99bc ac85 a2bc
000001d0: ab8b d03b b1a2 d53d 8c56 8cbd 54e1 3d3d
000001e0: 926f e93e fd56 a43e 69bc 0f3e 6997 833d
000001f0: 6ebb e23e 73f1 46be cf67 e0bc efbd 3c3c
00000200: 1af5 94bd 15b2 22be 0210 90bc 3efe 0dbb
00000210: 2f1b bbbd d964 46bd 6b7b 893d 1e9f 9ebd
00000220: 802d fdbc 8656 8ebd 8540 2cbc ec0a 163d
00000230: d1db 4dbe b3fc 37bd edc7 133e 0768 103e
00000240: b447 7dbc aee6 693d 64a1 7d3d 2f6c 803d
00000250: 0118 9d3d 23d2 2d3d 9b11 49bc c63b 14bd
00000260: c708 1dbe 5639 363c 947d 5dbd 1541 083d
00000270: 1d49 7ebd 23df 4bbd 055e 34be 70ef 0d3c
00000280: 0eb3 8bbd 6299 96bd e2b6 c6bd a40d d93d
00000290: f157 0abb 4984 1f3d 6294 023d c233 98be
000002a0: 0a16 2a3e 4dd5 993d 84ee 263e fd72 85bd
000002b0: ec9f 3eba 82a7 ae3c d823 a2bc 4108 9cbc
000002c0: c5d6 ac3d 5c8c 3cbb 5bc3 1c3d cb9d 163c
000002d0: 06fd 6e38 882a f03c 28a1 3dbe f3b9 79bd
000002e0: aa2b 023e ee48 503c 349b d63c 81ca 2dbd
000002f0: bf42 0a3c 3249 2cbd 2e9f b8bd d3aa 683c
00000300: fec6 893d 0962 d5bc fbf5 ca3d 2fab 1f3d
00000310: f93b 463e 3cd7 543d 7b3b 243d b5bc 8f3c
00000320: d708 94bd a6fc 1c3d 1ca9 583d 03bb f63c
00000330: 1277 5cbd f83b 18bc d1b3 4fba 0ce5 32bd
00000340: ff99 bdbd bf70 b6bd b7b0 52be c4ff e8bd
00000350: f220 0f3e 55ce 123d 6213 193e 0643 183e
00000360: bcb5 6d3b d5b1 d33b b5da c0bd 8792 36bc
00000370: 07ef d43d 2abf 723e c586 843d 8691 f8bd
00000380: fb4d ac3d a167 1a3d 7603 e23d af4b c2bd
00000390: 96b3 cfbd 6599 b3bd 14c3 16bd 33c0 f03b
000003a0: 8292 833e f83d d0bc c96e ce3d c719 463d
000003b0: 3c26 413c c3cc 33bd d554 c53b f1da c4bb
000003c0: 6707 103e fef9 c53d fe9a 563d 47f3 1c3c
000003d0: 2e4f 33be 93d7 b9bd 3d7c 0b3d 8761 e53d
000003e0: 7b54 e23d a814 a63d d921 fa3d 1627 15bd
000003f0: dd92 e8bd 6880 dabc b1e4 7d3d f866 d8bc
0.14753297 0.02270057 -0.01917032 0.04381399 -0.0701968 -0.040798347 0.059811182 -0.026986932
0.049647823 -0.5183719 0.056564167 -0.057953354 0.13262409 -0.037941903 -0.07540668 0.121794105
0.15614043 -0.22390893 -0.049634255 -0.15929322 0.0014346057 -0.12392627 -0.01667109 -0.01841704
0.006719395 -0.035405725 0.061846506 0.042966224 -0.16891061 0.09127173 0.24595903 -0.0015728107
-0.10705121 0.19503507 -0.053470924 -0.023953509 -0.46175775 0.038458936 -0.40368474 -0.05271474
0.06305482 0.34354118 -0.011905551 -0.012869016 0.32624823 0.18264519 -0.008771853 -0.13108376
0.20056811 -0.044653058 0.06566013 0.022469109 0.05521739 0.074147955 0.02069956 -0.020160861
0.2673883 0.20703743 -0.014109574 0.00891907 0.00032832255 -0.064778276 -0.033689808 -0.012602107
0.04135185 0.3145591 -0.05522991 0.021471864 0.17017898 -0.018228 -0.05287605 -0.04921661
-0.1399471 -0.008874227 -0.08222723 0.0017400251 0.21683496 0.100228846 0.0890371 0.11176169
-0.035194002 0.008862765 0.06133703 0.032836974 -0.003904212 0.13217312 0.003953761 0.020091768
-0.1091633 -0.06558553 -0.18503001 -0.12280095 0.2203998 -0.14988516 0.042963658 -0.07136424
0.1640489 0.15126199 0.031928446 -0.002623408 0.2106142 -0.13322435 0.0752951 0.006532617
-0.030718235 0.08794902 -0.06089061 -0.042292204 0.18584815 0.08372723 -0.0133965695 -0.030973405
0.050156705 -0.022289619 -0.018698538 -0.01983913 0.006364306 0.104314215 -0.06852445 0.046357468
0.45592934 0.32097617 0.14036717 0.064253636 0.44283623 -0.19428043 -0.02739325 0.011519893
-0.07273312 -0.15888245 -0.017585758 -0.0021666433 -0.09136044 -0.04843602 0.06712993 -0.07745193
-0.030905485 -0.06950097 -0.0105134295 0.03663151 -0.20103385 -0.044918727 0.14431734 0.14102183
-0.01545899 0.05710476 0.061921492 0.062706344 0.07670594 0.04243673 -0.012272264 -0.036189817
-0.1533538 0.011122068 -0.05407484 0.033265192 -0.062081445 -0.049773347 -0.1761399 0.008663043
-0.06821261 -0.07353474 -0.09702851 0.10598305 -0.0021109546 0.038944516 0.03187979 -0.29726988
0.1660997 0.07511387 0.16301924 -0.06516073 -0.0007271755 0.021320108 -0.019792482 -0.019046905
0.084394015 -0.0028770184 0.038272243 0.009192894 5.697927e-05 0.029317155 -0.18518507 -0.06096835
0.12711969 0.0127127 0.026197053 -0.04242945 0.008438765 -0.042061992 -0.09014736 0.014200884
0.06727408 -0.026047723 0.09910198 0.038981613 0.19358815 0.051963076 0.040095787 0.017546037
-0.072282486 0.03832688 0.05289565 0.030118471 -0.05382449 -0.009291641 -0.0007923218 -0.043675467
-0.09257888 -0.08908223 -0.20575224 -0.113769084 0.13977411 0.035841305 0.149488 0.14869317
0.0036271652 0.006460408 -0.09416715 -0.011143333 0.10397153 0.23705736 0.06471018 -0.121371314
0.08413311 0.037696484 0.11035816 -0.09487092 -0.10141675 -0.08769492 -0.036807135 0.0073471307
0.25697714 -0.025420174 0.10079724 0.048364427 0.011788901 -0.043896448 0.0060220757 -0.006007545
0.14065324 0.09666823 0.052393906 0.009579486 -0.17510673 -0.09074321 0.03405403 0.112002425
0.110512696 0.081094086 0.12213487 -0.03641423 -0.11356137 -0.026672557 0.061985675 -0.026416287

t_conv3.bias f4 [32]
00000000: c641 94bd c14d 51be d35d 89be d460 a4be
00000010: e111 44be 6383 a43a ef39 cbbd 6b98 3ebe
00000020: 94fb 08be f670 a4be 78fc 72be 1bdf 04bc
00000030: a9f8 823d ef57 8fbd 7f78 dcbe 74dd b7bc
00000040: 10b6 9abe e487 3b3e 66bd b6bd c3ea 8fbe
00000050: 6018 19bd c5b7 503d 9f08 72be 3dc7 90be
00000060: e124 02be f545 fdbe d54a d3be 583f 0d3d
00000070: 7e4a 5c3e 0d3d f5be cb37 04bf fbce 0cbd
-0.07239108 -0.20439817 -0.26829395 -0.32105124 -0.19147445 0.0012551363 -0.09923159 -0.1861283
-0.1337722 -0.32117432 -0.23729122 -0.008109833 0.063950844 -0.06999194 -0.4306068 -0.022444464
-0.30217028 0.18313557 -0.08922844 -0.28108796 -0.03737676 0.050956506 -0.23636101 -0.28277007
-0.1270938 -0.49467435 -0.4126803 0.034484237 0.21512792 -0.4789814 -0.51647633 -0.03437708

t_conv4.weight f4 [32, 16, 2, 2]
00000000: 34ca cebd 0698 28be f7ff da3c c984 57bd
00000010: 6b31 56bd 78e2 a13b fba1 a4bd 4b6a 25be
00000020: d06a ee3d ef5d 0cbc 29a3 b93d 68aa 043e
00000030: e8fd 96bd c0fe 5f3d 0c6a 1ebe e858 26bd
00000040: 637e 223c d388 793c 6569 3fbd 0d9d 903c
00000050: b38c 253d 7aca c13c acf1 35be b324 36be
00000060: 8145 093e 5bb3 3a3e 2d67 d33d 0529 263e
00000070: c4e4 273d 816f a73c ea81 cd3d db7f c73d
00000080: b694 fabd e4da 1bbe d579 5dbd 09cb 313d
00000090: dbac 99bc 9b2d ad3d 60d9 9ebc 7b32 0abd
000000a0: 6bef 66bd a69e a3bb bb0f 28be d170 91bd
000000b0: 85cc 1d3d 77f5 13bc 15fa 8abd 121d 0abd
000000c0: 6d8c 17be 1b12 51bc 4114 4dbe 8a48 fdbd
000000d0: ae67 11be be41 ecbd cc39 fa3c 3717 9abb
000000e0: cdee 863c 6d3c 59bd 164e 5c3c 0b75 36be
000000f0: c990 fb3a 2f00 a93d a734 593d a64e b4bc
00000100: 50e8 9abd c274 25be 374d f33d 4bbe b0bc
00000110: f706 10be 70ef 71be 3ea2 3dbd 29a5 13be
00000120: 6b3b 5d3d 34a7 053d dd9e 2fbd 500c 953d
00000130: b5ff 22be bfed 43be 01f8 8abd b94b 2dbe
00000140: e6e3 0fbd cf0e 86bd e929 293d 082f bfbd
00000150: 27c1 e7bd 67a2 43be 121f ffbb 3ced 16be
00000160: 49a0 4a3e 9bb3 9c3e 6174 073e a970 3e3e
00000170: 0ca1 1e3e 598b 4d3e 0d32 1c3e 6288 573e
00000180: 5f22 10bd 3386 9bbd 88b1 863d ff65 6bbd
00000190: b07b 2abd 1b13 b3bd 6b2e 4f3d fcd2 3a3e
000001a0: af35 f6bd f6cf 28be e8c2 81bc c041 97bd
000001b0: f44e 253e 8cba 5f3e a2f9 603d 27cd 0a3e
000001c0: 3afb 0fbe 36b3 3fbe b885 8fbe ada4 34be
000001d0: 240d 96bd b547 2abe db54 be3d c5ea 22bd
000001e0: d555 94bd 0266 29be 8603 493c 2865 b5bd
000001f0: f72b 313d 43b5 143e 4239 96bd 30ab 5abd
00000200: 8284 1c3e 9aeb 293e bfd7 fb3d 9d39 443e
00000210: 3359 cd3e d69e e0bb 0bd8 da3e 46c8 c03d
00000220: 0509 fc3c bc06 15be 22ec adbc 38f1 b43d
00000230: 087c a13e f848 00bf 19e4 9e3e 2241 13bf
00000240: 4cb5 72be 4366 b63c dddd e9bd dc7c 34be
00000250: e3f3 4c3e 5414 153e be42 173e bbb0 2b3e
00000260: b563 d23c dc11 a23c 991c 33bd f6f7 9a3c
00000270: 569e 5f3d 424b cdbd b18e b0bd 3a34 3cbd
00000280: 0129 823e 714e d83d 9ad5 8d3e efbd b1bd
00000290: 5c13 8e3e f3da e63d c4fa ce3d a383 70bc
000002a0: a29e 6b3e fda5 85be 88a7 4c3e 53ed 3bbe
000002b0: 3d45 82bd 1a83 afbe 3541 30bd 90d8 37be
000002c0: b97e 933e 8c15 72be 584d b73c 6cc8 fbbd
000002d0: dccf 9f3e 729b 8ebd 2e6c c53e ff63 36bd
000002e0: cb22 a53d af54 863e 1e21 51bd 2205 993e
000002f0: cf85 a53d 102b 83bd 62f3 acbd 5a17 7ebd
00000300: b2fc 86bd c271 edba 1771 8cbc 1b37 7d3e
00000310: ded3 4dbd aea3 e93d f9c9 b83e 583e b03e
00000320: 8086 083e 5880 de3d a6be 3c3e 76c9 3ebd
00000330: 6afe 33bd 8756 13bd 71d1 903d 9a26 9d3e
00000340: 4b4f ccbd f323 fe3d 7eed 84bd d61f 88be
00000350: 22c2 29be 9f6e 38be e240 e3bd 55c8 183e
00000360: bf51 053d d775 953d ec70 fa3c 1daa 20be
00000370: 51fc 1b3e bc08 323e c6f1 163e b6ee ac3d
00000380: 6a93 453c 673e 853d 9fce 4f3e 7c2d a0bd
00000390: 8716 193d 7bc4 47bd fe22 9e3d aad8 23be
000003a0: 3fc4 3bbd bfd8 e73c d20c d13d 7f64 783e
000003b0: d49c 1a3e ba39 5a3d 5495 76bd a100 ddbd
000003c0: d7d9 103e 53cc 2a3e 6197 403e 9ee6 7e3e
000003d0: b0a5 973c 7faf 483e 21b4 9e3e 47f5 ab3e
000003e0: 4e8c 63bd 1447 d43b d062 7fbd 17d8 a83e
000003f0: 44fa ad3d 2af3 123d 7f1a a6bd ab68 503b
-0.10097161 -0.16464242 0.026733382 -0.05261687 -0.052293222 0.0049403273 -0.08038708 -0.16153829
0.116414666 -0.008567317 0.090643235 0.1295563 -0.073726475 0.054686308 -0.15470141 -0.04061213
0.009917828 0.015230375 -0.04673137 0.017653013 0.040417384 0.023656119 -0.17767972 -0.17787437
0.1340542 0.18232481 0.103224136 0.16226585 0.040989652 0.020438911 0.10034545 0.09741183
-0.122353956 -0.15220219 -0.054071266 0.04340652 -0.018759182 0.08455964 -0.019390762 -0.03373955
-0.05638067 -0.0049932776 -0.1641225 -0.07101596 0.038525123 -0.009030691 -0.067859806 -0.03371913
-0.14799662 -0.012760664 -0.20027258 -0.12367351 -0.14199707 -0.11535977 0.030545138 -0.0047024745
0.016471291 -0.053036142 0.0134463515 -0.17818086 0.001919293 0.08251988 0.05302873 -0.022010159
-0.07563841 -0.16157821 0.11879962 -0.021575114 -0.14065157 -0.23626494 -0.046297304 -0.14418472
0.054011744 0.03263016 -0.042876113 0.07277739 -0.15917857 -0.19133662 -0.06785584 -0.16923417
-0.03512945 -0.06545793 0.041299734 -0.093351424 -0.11316138 -0.1910492 -0.0077856863 -0.14738935
0.19787706 0.30605778 0.13227989 0.18597664 0.15491122 0.20072688 0.15253468 0.2104812
-0.03518903 -0.07593956 0.0657683 -0.057470318 -0.041621864 -0.087438785 0.050581377 0.18244547
-0.12021958 -0.16485581 -0.015840009 -0.07385588 0.161434 0.21848506 0.05492557 0.13554822
-0.14060679 -0.18720707 -0.28031707 -0.17640944 -0.07326725 -0.16628917 0.09293529 -0.039774675
-0.07242934 -0.16542819 0.012268906 -0.08857185 0.04325482 0.14522271 -0.0733514 -0.053385913
0.15284923 0.16593781 0.1229701 0.19162603 0.40107116 -0.006854872 0.42742953 0.09413199
0.03076602 -0.1455335 -0.021230761 0.08835071 0.3153994 -0.5011134 0.310334 -0.5752126
-0.23701972 0.022265559 -0.1141927 -0.17625755 0.2001491 0.14558536 0.14771554 0.16766636
0.02568231 0.019783907 -0.043728445 0.018917065 0.05459436 -0.1002412 -0.08620966 -0.045948245
0.25421908 0.105618365 0.27702028 -0.08678805 0.27749145 0.1127223 0.101064235 -0.014679822
0.23009732 -0.26103202 0.19985783 -0.18352251 -0.063608624 -0.3427971 -0.043030936 -0.17953706
0.2880762 -0.23641032 0.022375748 -0.12294087 0.31213272 -0.069632426 0.38559097 -0.044528957
0.08063277 0.26236483 -0.051056974 0.2988673 0.080821626 -0.06404698 -0.08444859 -0.06203399
-0.065911666 -0.0018115568 -0.01714377 0.24728052 -0.05025088 0.114081725 0.36091593 0.34422565
0.13332558 0.108643234 0.18432102 -0.046578847 -0.0439438 -0.03597119 0.07071198 0.30693513
-0.099760614 0.124092005 -0.064906105 -0.2658679 -0.16577962 -0.18010949 -0.1109636 0.1492017
0.032548662 0.07297867 0.030571423 -0.15689893 0.1523297 0.17386144 0.14740667 0.08443968
0.012059072 0.06506043 0.20293663 -0.078211755 0.037375 -0.048771363 0.07721518 -0.1600062
-0.04584145 0.028301595 0.102075234 0.24257086 0.15098888 0.05327771 -0.060201004 -0.107911356
0.141456 0.16679506 0.18807746 0.24892661 0.018511623 0.19598196 0.30996802 0.3358557
-0.055553727 0.0064781997 -0.062350094 0.32977363 0.08495 0.03587643 -0.081105225 0.0031800668

t_conv4.bias f4 [16]
00000000: c1e0 183e dd31 e8bd d2b4 6ebb 3f9a 9c3d
00000010: 622b b63d 24a7 9f3d 7315 cabe 1852 79be
00000020: f999 d4be d039 c3bd a9b5 603d 3962 bbbd
00000030: c321 6fbe 4669 efbd 888a b9bd a5a6 b9bc
0.14929487 -0.11337636 -0.0036423695 0.076466076 0.08894993 0.077955514 -0.3946949 -0.24347723
-0.41523722 -0.09532511 0.054860745 -0.09149594 -0.23352723 -0.11690001 -0.09059626 -0.02266247

t_conv5.weight f4 [16, 3, 2, 2]
00000000: 23e3 43bd 9375 f2bd 1e52 923e e6a7 b23d
00000010: 7f21 48bd becd 35be b7bf 913e 7d19 173e
00000020: 9bbd b3bc 5f23 16be 6013 953e 89c6 ee3d
00000030: 0037 3f3e f643 9a3e 70e3 05bd 6454 013e
00000040: 1fb8 af3d 5f38 a43d a0cc fcbd 0fc2 303d
00000050: 9ef6 4d3e c982 303e d259 0bbd 47a2 683d
00000060: 279e 73be b4e4 9bbe 91c7 a6be 37ed bbbe
00000070: e42f 19bd 6aa2 60bd 3c72 babd 64bb c7bd
00000080: 196d 7d3d ee50 8b3d 05ed 003d b23b 4c3d
00000090: 6126 81be 05fa ec3d 6ab0 78be b228 0a3c
000000a0: 0c9b c1bd 87ab 813e 7e83 fdbd 892d 0b3e
000000b0: fbe2 4b3d 09d6 cc3e ca79 5ebc 0a0d 7b3e
000000c0: a848 72be 80cf 72be 4548 59be 8ded 4abe
000000d0: 3981 a63d 685b e13d 66d0 c53d 572f f43d
000000e0: 6cec 1f3e e71a 493e 9f31 2e3e edfa 563e
000000f0: fff0 5b3e df82 be3d 3d59 54bd 3511 fcbd
00000100: 0694 b43e ef2d 4a3e 6912 003e f9ff 6dbd
00000110: 7f71 563e 932c da3b 9b22 a03c 7e98 3bbe
00000120: 3187 903d b1a0 3c3e 829c 203d 667c dd38
00000130: 3f7c 36be 34b6 98bd 19d8 45be a90f 60be
00000140: 7299 93be d960 3abe 0d6e 97be 792f a5be
00000150: ac1f 11be 0c86 46be adcb eeba 94aa b73d
00000160: 9314 0dbe 5737 77be bf4b 69bd bf24 b7bc
00000170: bfc3 52be f5d7 aebe 2fb8 26be 2907 23be
00000180: 2ff5 0a3f 01ef 9d3d e168 e23e 6351 1fbc
00000190: 42b4 033f d335 af3d 8dbc d43e b286 893b
000001a0: e8fa 0b3f 6684 0e3e 06bc e43e 77df 4a3d
000001b0: 28da 603e 1b3f 0dbe f92e 583e 45ec 14be
000001c0: a958 813e f4b4 253d 723e 3a3e b14e c2bd
000001d0: 5394 353e 6b7b 7a3c b50b bc3d 0976 d8bd
000001e0: 656c 5f3e e8a1 a43e cd04 393e 84a5 b43e
000001f0: 33e4 7f3d 01a2 773e 077a e93c fcb5 873e
00000200: 6bc6 acbd 72a8 073e 58a3 dfbd 30eb 2a3e
00000210: 1ae1 bd3e f0fd 863e 3bc9 b23e 0d7d 8f3e
00000220: eacf 21be 89ed 88be 1603 21be d603 6ebe
00000230: 16ab 283d 9e47 91bd 2b2a 393d d196 11bd
00000240: 2135 843e 15e9 aa3e e627 993e 420a c23e
00000250: 834c 6e3e 11ec 973e 65e9 9c3e 0c84 c43e
00000260: c876 5f3e 2319 8d3e d1a3 a43e 9f2e c73e
00000270: a985 27be 5b26 41bc 043e fd3d ef5d 9f3e
00000280: af04 fcbd 2b85 753d 75bd 333e f3ad 6d3e
00000290: 430b 39be 4b0b d9bc db22 233e f8ef 7a3e
000002a0: 30d6 553e 938f b7bd 784b 453e 6a7d a4bd
000002b0: 4930 113e 5f70 debc ee70 913d 5522 0dbe
000002c0: 31ca 363e 3379 7a3d 92eb ae3d c70a 39bd
000002d0: 437b 82be 3360 bfbe 30d3 a7be f442 b5be
000002e0: 0352 013c 7bae 83bd c807 21bd 7b9d 2abd
000002f0: 45dd 143e 9789 bb3d cc6a f03d b9e6 0a3e
-0.047824036 -0.11838832 0.28578275 0.0872343 -0.04886007 -0.17754266 0.2846658 0.14755817
-0.021940997 -0.1466193 0.29116344 0.11658961 0.18673325 0.30129975 -0.032687604 0.12629849
0.0858004 0.080185644 -0.123437166 0.04315382 0.20113608 0.1723739 -0.034021206 0.056795385
-0.23790799 -0.30447924 -0.32574132 -0.36704418 -0.037399188 -0.05484239 -0.0910382 -0.09752539
0.06187162 0.068025455 0.03147604 0.049861617 -0.25224593 0.11571125 -0.24286047 0.008432554
-0.09453401 0.25326177 -0.12378596 0.13591589 0.049777012 0.40007046 -0.013578841 0.24516693
-0.23660529 -0.23711967 -0.21218975 -0.19817181 0.08130116 0.110037625 0.096588895 0.11923092
0.15617532 0.19639169 0.17011116 0.20994158 0.21478651 0.093023054 -0.051842917 -0.123079695
0.35269183 0.19744085 0.12507023 -0.058105443 0.20941733 0.0066581457 0.019547751 -0.1831989
0.07057036 0.18420674 0.039211757 0.00010561272 -0.17820834 -0.074566275 -0.19320716 -0.21880974
-0.28828007 -0.18201007 -0.2957615 -0.3226278 -0.14172238 -0.19387072 -0.0018218659 0.08968082
-0.1377738 -0.24142204 -0.056957003 -0.02235639 -0.20582484 -0.34149137 -0.16281198 -0.159207
0.5428037 0.07711602 0.4422064 -0.009723994 0.51446927 0.08555188 0.41550103 0.004196965
0.5467973 0.13917693 0.446747 0.04952952 0.2195822 -0.13793604 0.21111669 -0.14543255
0.25262955 0.040455773 0.18187883 -0.094876654 0.17732362 0.015288214 0.091819204 -0.105693884
0.21818693 0.32154775 0.18068238 0.35282528 0.062473487 0.24182893 0.02850057 0.2650603
-0.08436283 0.1324785 -0.10919827 0.1669128 0.370858 0.26365614 0.34919152 0.28025094
-0.15801969 -0.26743725 -0.15723833 -0.23243651 0.041178785 -0.07093738 0.04520623 -0.03554422
0.25821784 0.33380952 0.29913253 0.3789845 0.23271374 0.29672292 0.30646816 0.38381994
0.21822655 0.2755824 0.32156232 0.38902757 -0.16359581 -0.01178893 0.12365344 0.31126353
-0.12305581 0.059941452 0.17552741 0.23210888 -0.18070702 -0.026494643 0.15931265 0.24505603
0.20882487 -0.089629315 0.1926707 -0.08031733 0.14178576 -0.027153192 0.07101618 -0.13782628
0.17850567 0.06115074 0.08541025 -0.045176294 -0.25484666 -0.37378082 -0.3277831 -0.35402644
0.007893088 -0.06429764 -0.03931406 -0.04165409 0.14537533 0.091571026 0.1173912 0.13564576

t_conv5.bias f4 [3]
00000000: 6b7d 353e d370 443e 0e74 073f
0.17723624 0.19183664 0.5291146
