image_denoising/denoiser.pt (torch, 48333 bytes, 14 tensors)

conv1.weight f4 [32, 3, 3, 3]
0	0xbcb39ed5	-0.021926323
1	0xbcf84561	-0.03030652
2	0x3e09ca4f	0.13456081
3	0x3d8a3853	0.06749024
4	0xbcd25280	-0.025674105
5	0x3e198be0	0.14994764
6	0xbce87942	-0.028378133
7	0x3e394782	0.18093684
8	0x3d8ebae5	0.06969241
9	0xbdb38805	-0.08766178
10	0x3b811eda	0.0039404454
11	0xbdfc969f	-0.12333416
12	0x3e6aa6e4	0.22915226
13	0x3ddcd85e	0.10783456
14	0x3e0a8144	0.13525873
15	0x3e5b62f2	0.21424463
16	0x3d9b62d4	0.07587209
17	0x3d5896ff	0.052878376
18	0xbd875ae0	-0.0660913
19	0xbe14fc49	-0.14549364
20	0x3cb91850	0.0225946
21	0xbe065fc8	-0.13122475
22	0x3e0daaf4	0.13834745
23	0x3d9ce7f9	0.07661433
24	0x3d45e4f8	0.048314065
25	0x3e104da3	0.14092116
26	0x3dadc7c6	0.084853694
27	0x3e1c0b4d	0.15238686
28	0xbdbc1696	-0.091839954
29	0xbd561787	-0.05226853
30	0xbcec3c94	-0.02883748
31	0x3e0ec52c	0.13942403
32	0x3e381163	0.17975383
33	0xbb95d484	-0.004572453
34	0x3be9fdfa	0.007140872
35	0x3e1953de	0.14973399
36	0xbda9c934	-0.082903296
37	0x3d9263c9	0.07147939
38	0x3d6d91a8	0.058000237
39	0x3d60e544	0.054906145
40	0xbe070fe9	-0.13189663
41	0x3d0bf629	0.034170303
42	0x3d890744	0.06690839
43	0x3e3a7458	0.18208444
44	0x3e6177b1	0.22018315
45	0x3cd5e02b	0.026107868
46	0x3e3b126a	0.18268743
47	0xbdf1ad54	-0.11800638
48	0xbb4a05f8	-0.0030826312
49	0x3d5d416b	0.054017466
50	0xbdf60f94	-0.1201469
51	0x3e144acb	0.14481656
52	0x3e407b93	0.1879714
53	0x3ce25c6f	0.027631966
54	0xbd61945c	-0.055073127
55	0x3d2b03f9	0.041751835
56	0x3e5127f8	0.20425403
57	0xbd7f8570	-0.062383115
58	0xbd97a75b	-0.074049674
59	0x3e1dfb48	0.15427887
60	0x3e6ed9a7	0.23325215
61	0x3e4b894e	0.19876596
62	0x3e98c01f	0.29834077
63	0x3ddb0b52	0.106955186
64	0x3dfcc2dd	0.12341855
65	0xbdde18b8	-0.108445585
66	0x3e61c4c4	0.22047716
67	0xbc31b257	-0.010845742
68	0xbe2b07fb	-0.16702263
69	0xbcd612a7	-0.026131941
70	0xbd92b96d	-0.071642734
71	0xbd0b61a2	-0.034028657
72	0xbd78c69a	-0.060736276
73	0x3d1c5229	0.03816429
74	0xbded1a84	-0.11577323
75	0xbd8f593a	-0.069994405
76	0x3dc71fbb	0.09722849
77	0x3da03d2f	0.0782417
78	0x3dc243b9	0.09485573
79	0xbcde91cb	-0.027169129
80	0x3db31c64	0.087456495
81	0xbd086e43	-0.03330828
82	0x3e486c4f	0.19572566
83	0x3d67c03c	0.056579813
84	0xbe228447	-0.15870772
85	0x3e0351ba	0.12824145
86	0x3e35ad87	0.17741977
87	0xbe2c8e0c	-0.16851062
88	0x3d9be413	0.07611861
89	0x3bd1d105	0.006403091
90	0xbd19a8e5	-0.037514586
91	0x3e0f041a	0.13966408
92	0x3ddd32ad	0.10800681
93	0x3e152ca4	0.1456781
94	0x3d93523a	0.07193418
95	0x3d921f2b	0.07134851
96	0xbce428fb	-0.027851572
97	0x3de56923	0.11201694
98	0x3c11976d	0.0088862
99	0x3db62cee	0.088952884
100	0xbc203ab1	-0.009779618
101	0xbd55cf5b	-0.052199703
102	0x3e246ab1	0.16056325
103	0x3e15d19a	0.14630738
104	0x3e077f82	0.13232234
105	0xbcb506ae	-0.022097912
106	0x3caafbc8	0.020872012
107	0x3dc2dbd3	0.095145844
108	0xbd8d1dda	-0.06890459
109	0xbe01adc2	-0.1266394
110	0xbdbc5615	-0.09196106
111	0xbe0e53a9	-0.13899101
112	0xbe0e503a	-0.13897792
113	0xbe1bc641	-0.15212347
114	0xbd967ada	-0.07347651
115	0xbe40252b	-0.18764178
116	0xbe376ec6	-0.1791335
117	0x3c47bfec	0.012191754
118	0xbda876f0	-0.082258105
119	0xbd2ffb7b	-0.04296444
120	0x3d204cfa	0.03913591
121	0xbb46e2fa	-0.003034769
122	0xbc95424e	-0.018220093
123	0xbdc6b9d1	-0.097034104
124	0x3cf0b132	0.029381368
125	0x3e251e97	0.1612495
126	0x3e318c2b	0.17338626
127	0xbb8359d5	-0.0040085115
128	0x3e50a566	0.20375594
129	0xbda1637c	-0.07880303
130	0xbdd6a85f	-0.10481333
131	0xbda7b01b	-0.08187886
132	0x3e61d195	0.22052605
133	0xbdade6bc	-0.08491275
134	0xbc94bfd1	-0.018157871
135	0x3e76d21e	0.24103591
136	0x3e5beead	0.21477766
137	0x3d9ab78c	0.0755454
138	0x3e77bff1	0.24194314
139	0x3e152216	0.14563784
140	0x3e11add6	0.1422647
141	0x3c8a5e4a	0.016890664
142	0x3de217fc	0.11039731
143	0xbd57e871	-0.052711908
144	0x3e597dcf	0.21239398
145	0xbdeb14d3	-0.11478581
146	0xbdfdaef1	-0.12386883
147	0x3e1f2a1d	0.15543409
148	0x3cadb2ac	0.021203361
149	0x3da40644	0.080090076
150	0xbd8057ba	-0.062667325
151	0x3cdb7777	0.026790364
152	0x3df74c48	0.12075096
153	0x3e232857	0.15933357
154	0x3d65c7bd	0.05609869
155	0x3d8a07c6	0.06739764
156	0xbdc511bf	-0.096225254
157	0x3e1fd7cd	0.15609665
158	0x3d09be8a	0.033628978
159	0x3c818800	0.01581192
160	0xbb54a1e5	-0.003244513
161	0x3df7b9c2	0.12095977
162	0x3d6ff968	0.05858746
163	0xbdb6ddb5	-0.08929006
164	0xbd75e514	-0.06003292
165	0xbd248cd0	-0.04017335
166	0xbe330099	-0.17480697
167	0xbe13b211	-0.14423396
168	0x3d21f6e8	0.03954211
169	0x3dd8f33c	0.10593268
170	0x3d87449b	0.06604882
171	0xbded3c4b	-0.115837656
172	0xbddccee5	-0.107816495
173	0xbe2c4064	-0.16821438
174	0xbe3ec565	-0.18629988
175	0xbe5c867d	-0.21535678
176	0x3d322d10	0.043500006
177	0xbd28ee4c	-0.041242883
178	0x3dcfbd0e	0.10143481
179	0x3d5765e1	0.052587394
180	0x3e128f90	0.14312577
181	0xbd41a961	-0.047280673
182	0xbd1dc0e7	-0.038514044
183	0x3d100212	0.035158224
184	0x3e1140cb	0.14184873
185	0xbd9c0012	-0.07617201
186	0x3dd87ebb	0.10571047
187	0x3e47ada5	0.19499834
188	0x3e819721	0.25310615
189	0xbca533aa	-0.020166237
190	0xbd6bc74f	-0.057563122
191	0x3e4b1e1b	0.19835703
192	0x3d6a9876	0.057274304
193	0xbdae38da	-0.08506937
194	0xbd589639	-0.05287764
195	0x3cce1d90	0.02516058
196	0xbcf54c76	-0.029943686
197	0x3d0ee491	0.034885947
198	0xbc93c2aa	-0.018037159
199	0xbd4a2486	-0.049351238
200	0xbce9bab9	-0.02853142
201	0xbdd10870	-0.102066875
202	0xbdc36654	-0.09541002
203	0xbdc0434d	-0.093878366
204	0x3caacf71	0.020850869
205	0xbd625482	-0.055256374
206	0xbd0dc49d	-0.034611333
207	0xbd276eb4	-0.04087706
208	0xbdde6e5a	-0.10860892
209	0xbd7184f5	-0.05896469
210	0xbde2104c	-0.11038265
211	0xbdf76fc4	-0.120818645
212	0xbd4d60b6	-0.05014106
213	0xbd25f6b9	-0.040518496
214	0xbdcaa9e3	-0.098956846
215	0xbd74845d	-0.059696544
216	0x3adf1871	0.0017020834
217	0x3c8c8611	0.017153772
218	0x3d87eb4b	0.066366754
219	0xbccf005c	-0.025268726
220	0xbd1868c2	-0.03720928
221	0xbd8d727f	-0.06906604
222	0xbe1f956f	-0.15584348
223	0xbe29506c	-0.16534585
224	0xbe57df5c	-0.21081299
225	0x3d707efa	0.058714844
226	0x3e1a3d36	0.15062413
227	0x3e34cd89	0.1765653
228	0xbcadb5c1	-0.021204831
229	0xbc8fbc14	-0.017545737
230	0xbcdd113f	-0.026985763
231	0xbc3574fd	-0.011075255
232	0xbe4adc95	-0.19810708
233	0xbe58d9bd	-0.2117681
234	0x3dc82a7c	0.09773728
235	0x3e0e7584	0.13912016
236	0x3e1d6cea	0.15373579
237	0xbd172f72	-0.03691048
238	0x3d9ae116	0.07562463
239	0xbc7d9711	-0.015477912
240	0xbe05dde5	-0.13072927
241	0xbdf895f9	-0.1213798
242	0xbe7769f8	-0.24161518
243	0x3c95b739	0.018275844
244	0xbcf9255b	-0.03041332
245	0xbe013e63	-0.12621455
246	0x3d20245f	0.039097186
247	0x3dcab145	0.09897093
248	0xbcafc144	-0.02145446
249	0x3e462beb	0.19352691
250	0xbc816653	-0.015795862
251	0x3ce412c6	0.027840983
252	0xbd68a15b	-0.056794506
253	0xbcf3238e	-0.02968004
254	0x3cc72f91	0.024314674
255	0x3e20ee86	0.1571599

conv1.bias f4 [32]
0	0x3dff819f	0.12475895
1	0xbd8b4ea0	-0.06802106
2	0x3e20783e	0.15670869
3	0x3e1a8613	0.15090208
4	0x3f01572a	0.50523627
5	0xbd61bbab	-0.055110615
6	0x3edb25fe	0.42802423
7	0x3f32e101	0.6987458
8	0x3e85eb47	0.26156065
9	0x3e7246ed	0.23659869
10	0x3d0cbdc6	0.03436067
11	0x3f0a7ac0	0.5409355
12	0x3f118df3	0.5685722
13	0xbdb28278	-0.08716291
14	0x3e873461	0.2640715
15	0x3ec0f109	0.37683895
16	0xbe84d746	-0.2594549
17	0x3f23484a	0.6378218
18	0x3e2cc51b	0.16872065
19	0xbea2fdf2	-0.3183437
20	0x3e9f2146	0.31080073
21	0xbe5dbbff	-0.21653746
22	0xbe19f0cd	-0.15033264
23	0x3f07608d	0.528817
24	0x3d57d112	0.05268962
25	0x3df71c45	0.12065939
26	0x3df7467a	0.12073989
27	0xba3042bd	-0.0006723812
28	0xbe963e2c	-0.29344308
29	0x3f222bc9	0.6334806
30	0x3e938cc0	0.2881832
31	0xbe3f5a5a	-0.1868681

conv2.weight f4 [16, 32, 3, 3]
0	0xbccddba4	-0.025129147
1	0x3d2a0e88	0.041517764
2	0xbcb48593	-0.02203635
3	0x3c9aaada	0.018880296
4	0x39c11935	0.0003683061
5	0xbd0c47e0	-0.034248233
6	0x3b337011	0.002738003
7	0x3d25b171	0.040452424
8	0x3d2c53ef	0.042072233
9	0xbbbc917b	-0.0057546473
10	0xb8e88b23	-0.00011088538
11	0x3cf40965	0.029789636
12	0xbcdf572e	-0.02726325
13	0xbc89e290	-0.016831666
14	0x3ccdbef2	0.025115464
15	0x3d131969	0.035912905
16	0x3ae508a7	0.0017473892
17	0xbc3af2a3	-0.011410388
18	0xbd64cec5	-0.055861253
19	0xbc245b96	-0.010031601
20	0xbd368860	-0.04456365
21	0xbc8b304f	-0.016990809
22	0xbbd5bf2b	-0.006523033
23	0x3c8b7bec	0.017026864
24	0x3d37cf4b	0.044875424
25	0xbad3934a	-0.0016141918
26	0x3b641c38	0.0034806859
27	0xbd044f9e	-0.03230249
28	0xbd47dbd9	-0.048793647
29	0xbd6fa746	-0.058509134
30	0x3bdb0502	0.0066839466
31	0x3b1d5914	0.0024009394
32	0x3d3c6a51	0.04599983
33	0x3ce5082d	0.027958
34	0xbb7c94f7	-0.0038540938
35	0xbccaf82d	-0.024776543
36	0x3d2afe78	0.041746587
37	0xbd50fcda	-0.051022388
38	0xba87341f	-0.0010315216
39	0x3cb014f1	0.02149436
40	0xbd6a770a	-0.05724243
41	0x3d3fddd9	0.04684243
42	0xbc5f54e6	-0.013631081
43	0x3d52cb32	0.051463313
44	0xbc17c084	-0.009262208
45	0xbd29126d	-0.041277338
46	0x3cba71ba	0.022759307
47	0xbd33bf63	-0.043883692
48	0xbd434c7b	-0.04768036
49	0xbcc255fd	-0.023722643
50	0x3cf798e8	0.030224279
51	0x3c5c18ae	0.0134336185
52	0x3d246fcf	0.04014569
53	0xbcd57eed	-0.0260615
54	0xbb8d8adb	-0.0043195314
55	0xbcbebe5e	-0.023284134
56	0x3d536daf	0.051618274
57	0x3986a9fd	0.00025685123
58	0xbd6eb273	-0.05827565
59	0x3c06a9f6	0.008219233
60	0xbd389fcc	-0.04507427
61	0x3b7f74a0	0.0038979426
62	0x3c4474b4	0.011990715
63	0xbce0f7fa	-0.027461994
64	0xbd5224b4	-0.051304534
65	0xbbaa4ecf	-0.005197383
66	0xbd1e3572	-0.03862519
67	0x3d7406ec	0.059576914
68	0xbcb980ae	-0.022644367
69	0xbc429588	-0.011876471
70	0x3d394892	0.045235224
71	0xbc08d9b0	-0.008352682
72	0x39b88095	0.00035191016
73	0xbd6f7cd7	-0.058468666
74	0x3cd2777f	0.025691746
75	0x3d2d1cdc	0.04226385
76	0xbd699892	-0.057030268
77	0x3d693803	0.056938183
78	0x3d1feb07	0.0390425
79	0x3cf12a8a	0.02943923
80	0xbb069d5c	-0.002054057
81	0xbc4793ae	-0.012181206
82	0x3d43648d	0.047703315
83	0x3cbc417b	0.022980442
84	0xbd20fb4f	-0.039302167
85	0xbd1c8b5c	-0.03821884
86	0x3d3f4a77	0.046701875
87	0xbd17e173	-0.03708024
88	0xbcd6fec6	-0.026244532
89	0xbd44f557	-0.048085537
90	0x3c4e63ec	0.012597065
91	0xbc8beea0	-0.017081559
92	0x3d418c19	0.04725275
93	0xbd037e75	-0.03210302
94	0x3c3efb9f	0.011656671
95	0xbd34ff0b	-0.04418854
96	0xbd3c91be	-0.046037428
97	0xbd764105	-0.0601206
98	0xbb982397	-0.0046429145
99	0x3c17e723	0.009271416
100	0x3ca4da2d	0.020123566
101	0x3d589337	0.05287477
102	0x3cc2d3d4	0.023782648
103	0xbb93a251	-0.0045054336
104	0x3ce4de6d	0.027938092
105	0xbd724332	-0.059146114
106	0x3d550d1a	0.052014448
107	0xbd5f1afa	-0.054469086
108	0x3d0a3752	0.033744164
109	0xbd12b039	-0.03581259
110	0x3d6064f8	0.05478379
111	0x3c86d91e	0.016460951
112	0x3ce05a23	0.02738673
113	0x3c89237c	0.016740553
114	0xbce3102f	-0.027717678
115	0x3a68beb2	0.00088785135
116	0x3c5e986d	0.013586146
117	0x3c466021	0.01210788
118	0x3c424a9b	0.011858608
119	0x3d2e031f	0.042483445
120	0xbc5f62ca	-0.013634393
121	0xbd2d46d7	-0.042303886
122	0x3cb3b9aa	0.021939117
123	0x3d1d8caa	0.038464226
124	0x3d1582b4	0.0365016
125	0xbd3cc4ef	-0.046086248
126	0xbbc17874	-0.0059042517
127	0x3c16bfd1	0.009201006
128	0xbbcbe850	-0.006222762
129	0x3cb37184	0.021904714
130	0xbd755e68	-0.059904486
131	0x3cdf31b5	0.027245382
132	0xbcb9ae94	-0.022666253
133	0x3bb42427	0.0054974738
134	0xbc8edcba	-0.017439235
135	0xbd59b4a9	-0.053150807
136	0x3cc11d50	0.023573548
137	0x3938acc0	0.00017611962
138	0xbba3c851	-0.004998245
139	0x3d3c3796	0.04595145
140	0x3d4eb7f2	0.050468393
141	0xbccbf7e3	-0.024898475
142	0xbc7f99e9	-0.01560066
143	0xbc938b96	-0.018010896
144	0xbd3a0fc9	-0.04542521
145	0xbd66066d	-0.05615847
146	0xbcf0405d	-0.029327566
147	0xbd184808	-0.03717807
148	0xbc4b1b87	-0.0123967
149	0xbc0f05ed	-0.00872944
150	0x3d1acf2c	0.03779523
151	0xbc1675bc	-0.0091833435
152	0x3cdb8a05	0.026799211
153	0xbd648c3e	-0.055797808
154	0xbbaab955	-0.0052100816
155	0xbc0fcd21	-0.008776934
156	0x3ca13a94	0.019681253
157	0x3d2af1df	0.041734572
158	0x3d26415f	0.040589686
159	0x3c561c32	0.013068246
160	0x3cd80eea	0.0263743
161	0x3d36634c	0.04452829
162	0x3d30f1fe	0.04319953
163	0x3c983384	0.018579252
164	0xbd3cec54	-0.046123818
165	0x3d07b0c1	0.03312755
166	0x3c3a57f2	0.011373507
167	0x3d11313b	0.03544734
168	0x3c5d5a9c	0.0135103725
169	0x3c2ec3af	0.010666772
170	0xba87b3b1	-0.0010353235
171	0x3d073971	0.033013765
172	0x3d2b5084	0.041824833
173	0x3d5a926b	0.05336229
174	0xbd6204e5	-0.05518045
175	0x3cc620f2	0.024185631
176	0x3d2dda99	0.0424448
177	0xbd123c3c	-0.035701975
178	0xbd67d3cb	-0.056598466
179	0x3cd3a827	0.025837017
180	0x3a806e2f	0.0009798462
181	0x3d2e6f44	0.04258658
182	0x3c9c1fb3	0.019058084
183	0x3d20636e	0.039157324
184	0xbd618f8d	-0.05506854
185	0xbcc2a70d	-0.023761297
186	0xbd7cae19	-0.06168947
187	0x3b5cb137	0.0033674964
188	0x3d07aa26	0.03312125
189	0xbd3ce073	-0.04611249
190	0x3d0c739e	0.03428995
191	0xbd6674e1	-0.05626381
192	0x3d1020d8	0.035187572
193	0xbd5c1178	-0.053727597
194	0xbd4f0103	-0.050538074
195	0xbd0c6676	-0.034277402
196	0x3c4a95ce	0.012364818
197	0xbd6ca29d	-0.057772268
198	0x3cb45e56	0.02201764
199	0xbd7a7c3d	-0.06115364
200	0xbc2d97ec	-0.010595303
201	0xbccb2747	-0.024799002
202	0xbc8a546f	-0.016885964
203	0xbd33443d	-0.04376625
204	0x3d52c602	0.051458366
205	0x3d462318	0.04837331
206	0xbd846723	-0.06464984
207	0xbc5e0896	-0.013551852
208	0xbd4ffe1c	-0.050779447
209	0xbd621014	-0.055191115
210	0xbcce781a	-0.025203753
211	0x3d038720	0.032111287
212	0xbd74abf2	-0.059734292
213	0x3d4a3b68	0.04937306
214	0x3d3ee821	0.046608094
215	0x3c9ea0e0	0.01936382
216	0x3d2202c7	0.03955343
217	0x3baeb6ce	0.0053318506
218	0x3cc773ab	0.024347147
219	0x3cd6027e	0.026124235
220	0xbd67aa84	-0.0565591
221	0x3c333ed2	0.0109402705
222	0xbbbf0997	-0.0058300006
223	0xbd784b8b	-0.06061892
224	0x3d2a30ff	0.041550633
225	0xbcc8de34	-0.024520017
226	0x3b105716	0.0022024564
227	0xbd11dbbc	-0.035609946
228	0x3d012ef9	0.031538937
229	0xbb173253	-0.0023070767
230	0xbce66d69	-0.028128343
231	0xbd04da5c	-0.032434806
232	0x3c0fb5ef	0.008771404
233	0xbd6bde50	-0.05758506
234	0x3c9c547e	0.019083258
235	0xbd642dcc	-0.055707738
236	0xbd2fd630	-0.042928874
237	0x3b07dcce	0.0020730975
238	0xbd1a4ce7	-0.037670996
239	0x3c57dedd	0.013175693
240	0xbd33b3ef	-0.04387277
241	0xbccd7950	-0.02508226
242	0x3c906754	0.017627396
243	0x3ccab19f	0.0247429
244	0xbc9fb3d7	-0.019494934
245	0x3c6c04d5	0.014405449
246	0xbd54969a	-0.051901437
247	0xbc92063d	-0.01782524
248	0x3cfd88e6	0.030949067
249	0xbc3635c8	-0.011121221
250	0xbd6b7c37	-0.057491507
251	0xbc3f1132	-0.0116618145
252	0xbc6e0a39	-0.014528804
253	0x3c6d81b3	0.014496255
254	0xbc92a236	-0.017899614
255	0xbd3dc788	-0.046332866

conv2.bias f4 [16]
0	0xbd6943bd	-0.056949366
1	0xbe5cbfc2	-0.21557525
2	0xbd9882b5	-0.074468054
3	0xbd894870	-0.067032695
4	0xbdbddbbf	-0.09270429
5	0xbd046875	-0.03232618
6	0xbd67e3a6	-0.056613587
7	0x3ed01a83	0.40645227
8	0xbd0132d1	-0.031542603
9	0xbdb3ce0d	-0.087795354
10	0xbe35dcb3	-0.17759971
11	0x3d3aff19	0.045653436
12	0xbc8dd4b4	-0.017313339
13	0x3e1d9680	0.15389442
14	0xbd42b9ac	-0.04754035
15	0x3e7353fc	0.23762506

conv3.weight f4 [8, 16, 3, 3]
0	0xbc3649ab	-0.011125962
1	0x3d6405ee	0.055669717
2	0x3d282b7a	0.041057087
3	0x3d4dc276	0.05023428
4	0x3d42a96f	0.047524866
5	0xbdb17d70	-0.086665034
6	0xbd3915be	-0.04518675
7	0x3d0bf9e5	0.034173865
8	0x3cb7fdc8	0.02245988
9	0xbc99a2c6	-0.018754374
10	0x3d06f768	0.03295079
11	0xbb9b0da8	-0.0047318526
12	0xbd23599e	-0.039880387
13	0x3c863290	0.016381532
14	0x3d95cb73	0.073141955
15	0xbe142dfa	-0.14470664
16	0xbe10770a	-0.1410791
17	0x3db2ea6b	0.08736118
18	0x3d29077f	0.041266914
19	0xbc556fad	-0.013027114
20	0x3cce7bba	0.025205482
21	0xbd28ca21	-0.04120839
22	0xbe031655	-0.12801488
23	0xbd902b29	-0.07039482
24	0x3d45d92d	0.048302818
25	0xbe4d580f	-0.20053123
26	0x3da971e7	0.08273678
27	0x3d109e5f	0.035307284
28	0xbda3ce8c	-0.0799838
29	0xbb4c37a5	-0.0031161096
30	0x3d5abd1c	0.053403005
31	0xbded7ee8	-0.11596471
32	0x3d10ab18	0.035319418
33	0xba86672e	-0.0010254139
34	0xbe984684	-0.297413
35	0x3d1fa662	0.038977034
36	0x3cce8013	0.025207555
37	0xbd7f9a51	-0.062403027
38	0x3b84a5db	0.004048092
39	0x3d164b9b	0.036693197
40	0x3d560605	0.052251834
41	0x3bd8376b	0.006598403
42	0xbd9e2f0a	-0.07723816
43	0xbdec856f	-0.11548888
44	0xbdbdb0a8	-0.0926221
45	0x3cd620a7	0.026138617
46	0x3d6c0c1b	0.057628732
47	0x3d60a650	0.054846108
48	0xbb55e50f	-0.003263775
49	0xbcfc4c4e	-0.030798104
50	0xbbbe4cb6	-0.0058074845
51	0x3c56e97a	0.013117189
52	0xbd8da901	-0.069170006
53	0x3dd92a67	0.10603791
54	0x3d83fd51	0.06444801
55	0xbbb11df0	-0.00540518
56	0x3d449b36	0.047999583
57	0xbccd9266	-0.025094222
58	0xbd8adbac	-0.0678018
59	0x3c8abefc	0.016936772
60	0xbcdad586	-0.026713144
61	0x3d9aff61	0.07568241
62	0x3da6a029	0.08136017
63	0xbca4754d	-0.020075465
64	0x3d6a18b7	0.057152476
65	0x3cef204b	0.029190203
66	0xbc0983d4	-0.008393247
67	0x3db50570	0.08838928
68	0x3da6e5df	0.08149313
69	0x3da51c89	0.08062083
70	0x3d2eb9dc	0.042657718
71	0x3e216cc5	0.15764149
72	0xbd777730	-0.0604164
73	0x3d0ef016	0.034896933
74	0x3c122d98	0.008922003
75	0xbda91cdf	-0.0825746
76	0x3b665920	0.0035148337
77	0xbd24d3e3	-0.040241133
78	0xbd401c03	-0.046901714
79	0xbced38f0	-0.028957814
80	0x3d44293e	0.047890894
81	0x3d621623	0.055196892
82	0x3db4e421	0.08832575
83	0x3d93e98b	0.07222279
84	0x3d0bb6e8	0.03410998
85	0xbe4dbc49	-0.20091356
86	0xbc7b053c	-0.015321072
87	0x3e2dea9a	0.16984025
88	0x3e691db9	0.22765245
89	0x3d5c35c8	0.053762227
90	0x3c643463	0.013928506
91	0xbd98c0de	-0.074586615
92	0xbd971d3b	-0.07378622
93	0x3d5e96fd	0.054343212
94	0xbf31315b	-0.69215935
95	0x3dd070ab	0.1017774
96	0xbe0b94f3	-0.13631038
97	0xbf4e0176	-0.8047098
98	0xbdd05ea5	-0.10174302
99	0xbd68b5bb	-0.056813937
100	0xbd6ac5ee	-0.057317667
101	0x3c84676e	0.0161626
102	0x3d627a61	0.05529249
103	0xbdb70f00	-0.08938408
104	0xbd2c4951	-0.042062107
105	0xbda021c3	-0.078189395
106	0xbc92fbd8	-0.017942354
107	0xbc8f1f9d	-0.01747113
108	0xbd9f63a9	-0.077826805
109	0xbc65b80c	-0.014020931
110	0xbd3f60f0	-0.046723306
111	0x3cd53451	0.026025923
112	0xbe0b2cb9	-0.13591279
113	0x3db5b73c	0.0887284
114	0xbd827e23	-0.06371715
115	0xbe602482	-0.21888927
116	0x3db530d2	0.08847202
117	0xbd0b8ff2	-0.034072824
118	0xbce2df88	-0.027694479
119	0xbd1152fc	-0.03547953
120	0x3d0ad88b	0.033897918
121	0xbd58ee9d	-0.052961934
122	0xb9905063	-0.00027525713
123	0x3d5fb20f	0.05461317
124	0xbe3cf22f	-0.1845176
125	0xbd707590	-0.058705866
126	0xbcae42ba	-0.021272052
127	0x3d0bb094	0.034103945
128	0xbcfd1e35	-0.030898193
129	0x3d49fa60	0.04931104
130	0xbcf6247b	-0.030046692
131	0xbcd39b65	-0.025830934
132	0xbd83a6f7	-0.064283304
133	0xbe6bf4a5	-0.23042543
134	0xbdb68d7e	-0.08913706
135	0x3c34b19c	0.0110286735
136	0x3c9c0e8b	0.019049903
137	0x3c86a5b9	0.016436445
138	0x3ddbdaab	0.10735067
139	0x3d6b933b	0.057513457
140	0x3c6b5fae	0.0143660735
141	0x3e2addbc	0.16686147
142	0xbd59bf91	-0.053161208
143	0x3ca77b26	0.020444464
144	0x3d6c9ead	0.057768513
145	0x3d514eb4	0.051100448
146	0xbd10f8e4	-0.03539361
147	0x3d729b25	0.05922999
148	0xbd2f5b3e	-0.042811625
149	0x3d1ce1b3	0.03830118
150	0xbd9695ac	-0.073527664
151	0xbcec25cc	-0.028826617
152	0x3d881ed4	0.06646505
153	0x3bf88a1a	0.0075848224
154	0x3dbf28fe	0.093339905
155	0xbe3da640	-0.1852045
156	0xbd358622	-0.044317372
157	0xbee9c438	-0.45657516
158	0xbe1ba090	-0.15197968
159	0xbe196ffd	-0.14984126
160	0xbd583c2c	-0.05279176
161	0xbe1973a2	-0.14985517
162	0x3d6d593a	0.05794642
163	0xbdf9f252	-0.12204422
164	0xbd09d47d	-0.03364991
165	0x3cdb54ef	0.026773898
166	0xba8d5f67	-0.0010785878
167	0x3da491b3	0.080356024
168	0xbd8c2a1c	-0.06843969
169	0xbd4f7085	-0.050644416
170	0x3d054f6d	0.03254645
171	0xbb9d0344	-0.004791649
172	0x3c9116bb	0.017711034
173	0x3c3c0f23	0.011478218
174	0x3c9a8118	0.018860385
175	0x3d7a2c09	0.06107715
176	0xbd159066	-0.036514662
177	0x3d5ea003	0.054351818
178	0xbcb3a4bc	-0.021929137
179	0xbd27d22d	-0.040971924
180	0x3c723453	0.014782983
181	0x3d1f67ea	0.03891746
182	0xbd270e98	-0.040785402
183	0x3c9b7af8	0.018979535
184	0x3d28fcda	0.041256763
185	0x3db0aec9	0.086270876
186	0x3d81b57b	0.06333443
187	0xbbf1fab6	-0.0073846234
188	0xbc030661	-0.007997126
189	0x3dd5bc1f	0.10436272
190	0x3c976460	0.01848048
191	0xbd8f6706	-0.07002072
192	0x3d3c530f	0.04597765
193	0x3e0866d3	0.13320474
194	0x3dba64cb	0.09101256
195	0x3b8b2654	0.0042465124
196	0x3bfaf7ce	0.007658935
197	0xbd429717	-0.04750737
198	0x3da25fa5	0.07928399
199	0xbd7b2608	-0.061315566
200	0xbd43aeab	-0.047774
201	0x3d667ee2	0.05627335
202	0xbda5fbaf	-0.081046455
203	0x3da467a9	0.08027584
204	0xbca2d38c	-0.019876264
205	0xbc5875a8	-0.013211645
206	0xbbe2ba00	-0.0069191456
207	0x3d3d25a1	0.046178464
208	0x3d090485	0.033451576
209	0x3e142e79	0.14470853
210	0x3dbfa7dd	0.09358189
211	0x3dc9e805	0.09858707
212	0x3e09f2c1	0.1347151
213	0x3e3ca1c7	0.18421088
214	0x3e359cec	0.17735642
215	0x3e29a037	0.16565023
216	0xbc6b12c0	-0.014347732
217	0x3d72e6d2	0.05930216
218	0xbd83bc12	-0.06432356
219	0xbd8d0127	-0.068849854
220	0xba234280	-0.0006227866
221	0x3cfb43bc	0.030671947
222	0x3d990e3d	0.07473419
223	0x3c4e0d80	0.012576461
224	0xbd7e810b	-0.062134784
225	0xbd81fc69	-0.063469715
226	0xbd83255c	-0.0640361
227	0xbcb1aca6	-0.02168877
228	0xbcf23497	-0.029566092
229	0xbc0d97e2	-0.008642169
230	0xbc912849	-0.017719405
231	0x3cf601c7	0.030030144
232	0xbc4fb739	-0.012677961
233	0xbd7abc45	-0.061214704
234	0xbd12e652	-0.03586418
235	0xbe4bcdc2	-0.19902709
236	0x3b96678a	0.0045899795
237	0xbe500517	-0.20314442
238	0xbea0825c	-0.31349456
239	0xbd4908f7	-0.049080815
240	0xbdcdc89c	-0.10048029
241	0xbe1468a9	-0.1449305
242	0xbd7f0efe	-0.062270157
243	0xbd2c92f2	-0.042132325
244	0x3d2c873a	0.04212115
245	0x3d8034c7	0.062600665
246	0xbca514a1	-0.020151438
247	0xbd9616f9	-0.073286004
248	0xbcac8f0c	-0.021064304
249	0x3d97fd9b	0.07421418
250	0x3d91cbd3	0.071189545
251	0xbd47f3d5	-0.04881652
252	0x3d0262ab	0.03183238
253	0xbae1efe0	-0.0017237626
254	0xbd89befe	-0.06725882
255	0xbd426a4d	-0.047464658

conv3.bias f4 [8]
0	0x3e0db2bf	0.13837717
1	0x3e3c079d	0.18362279
2	0xbcd5b5de	-0.026087698
3	0x3e8d92cc	0.2765106
4	0x3e27e3c1	0.16395475
5	0xbd336d03	-0.043805134
6	0x3bfd38d2	0.007727721
7	0x3d1453f7	0.036212888

t_conv1.weight f4 [8, 8, 3, 3]
0	0x3d0ac5ec	0.03388016
1	0x3eab120a	0.334122
2	0x3df662b5	0.120305456
3	0x3e005289	0.12531485
4	0x3d6f4dc7	0.058423784
5	0xbe523c5a	-0.20530835
6	0xbe16754c	-0.14693183
7	0xbe4d76ba	-0.20064822
8	0x3db50778	0.08839315
9	0xbc691595	-0.014226337
10	0x3ca3244d	0.01991477
11	0x3c38963e	0.011266289
12	0x3c362b52	0.011118727
13	0xbd2b0eb4	-0.04176207
14	0x3c90e015	0.017684976
15	0xbe4714d4	-0.19441539
16	0x3e1329b1	0.14371373
17	0x3dddd570	0.108317256
18	0xbd541ad3	-0.051783394
19	0xbe6c856d	-0.23097773
20	0x3c938d4f	0.018011717
21	0x3cda896c	0.026676856
22	0x3c21e8a8	0.00988213
23	0x3dd65da9	0.10467083
24	0xbeac6ff4	-0.33679163
25	0x3d3d44fa	0.04620836
26	0xbbeaa5d8	-0.0071608834
27	0xbe6249b9	-0.22098435
28	0x3ea0ce66	0.3140747
29	0x3b1df2b6	0.0024100966
30	0xbe95d92d	-0.29267254
31	0x3eabfe16	0.3359229
32	0x3e0198a7	0.12655888
33	0xbed8d7fd	-0.42352286
34	0xbbaffa09	-0.0053703827
35	0x3cd1d4d7	0.025614185
36	0xbe4b695f	-0.19864415
37	0xbc9c69ad	-0.019093359
38	0x3d1eb4e9	0.038746748
39	0xbf025eac	-0.5092571
40	0xbe412e70	-0.18865371
41	0x3c9296e5	0.017894218
42	0x3dff9273	0.12479105
43	0xbe3ce109	-0.18445219
44	0xbd7b2cf5	-0.06132217
45	0x3d6ec00a	0.05828861
46	0x3e04857d	0.12941547
47	0x3d2c547f	0.04207277
48	0xbe1a63fb	-0.15077202
49	0xbefd260b	-0.49443087
50	0x3e3238c1	0.17404462
51	0xbe3b2bf7	-0.1827849
52	0x3e0b2782	0.1358929
53	0x3d41f03b	0.047348242
54	0xbe973d7f	-0.29539105
55	0xbda0493d	-0.07826469
56	0xbe2de534	-0.16981965
57	0xbdb5e9ec	-0.08882508
58	0x3d2c6d5a	0.042096473
59	0xbe25e244	-0.16199595
60	0xbeb8cc5c	-0.36093414
61	0x3e12f5e6	0.14351615
62	0x3dedcc0f	0.11611187
63	0xbf3f57c2	-0.7474328
64	0x3e019acd	0.12656708
65	0xbe22ae96	-0.15886912
66	0xbe5d74f9	-0.21626653
67	0x3e9a2c89	0.30112103
68	0x3de5b8d6	0.11216895
69	0xbe9433fa	-0.28945905
70	0x3affc618	0.0019513993
71	0xbbfcf4a9	-0.0077195955
72	0x3d66dd76	0.056363545
73	0xbe84999d	-0.25898448
74	0x3db91a3c	0.09038207
75	0xbde4c481	-0.11170293
76	0xbda1cb32	-0.079000846
77	0xbe93164b	-0.28727946
78	0x3df3c955	0.119036354
79	0xbe7a8edd	-0.2446856
80	0xbc59e94f	-0.013300254
81	0xbe09b209	-0.13446821
82	0xbe44866b	-0.19191901
83	0x3d89932c	0.06717524
84	0x3c502255	0.012703498
85	0x3e109862	0.1412063
86	0xbe101253	-0.1406949
87	0xbe2d62e9	-0.16932262
88	0xbade3021	-0.0016951599
89	0x3ccae11c	0.024765544
90	0xbe52af20	-0.20574617
91	0xbe4e6d75	-0.20158942
92	0xbd45be1d	-0.04827701
93	0xbe01aba8	-0.12663138
94	0xbdb26710	-0.08711064
95	0xbd89654c	-0.06708774
96	0xbd399d50	-0.04531604
97	0x3e4dfc38	0.20115745
98	0x3e0476d1	0.1293595
99	0xbb81642f	-0.0039487104
100	0x3d2a20c2	0.041535147
101	0xbaeaf0ba	-0.0017924525
102	0x3ccd20b2	0.025040004
103	0x3da1af65	0.07894782
104	0x3d3067b0	0.043067634
105	0x3e0dde5c	0.13854355
106	0x3cd16ccc	0.025564574
107	0xbd86b085	-0.06576637
108	0xbe0460a0	-0.12927485
109	0xbca25026	-0.019813608
110	0xbe1f7a0a	-0.15573898
111	0x3e4734e3	0.19453768
112	0x3e062b39	0.13102426
113	0x3df6ea5e	0.12056421
114	0x3d118f58	0.035537094
115	0x3dd44a6e	0.10365759
116	0x3d003c21	0.031307343
117	0xbe2a7738	-0.16647041
118	0x3e1f496a	0.15555349
119	0xbd7a8d87	-0.061170127
120	0xbe8bdc58	-0.27316546
121	0xbca91841	-0.020641448
122	0x3e311ac8	0.17295372
123	0xbc964389	-0.01834275
124	0xbd2be1c2	-0.041963346
125	0xbc435717	-0.011922619
126	0xbe48d396	-0.19611964
127	0x3d52c6b0	0.051459014
128	0xbe769615	-0.24080689
129	0x3d0b7af6	0.03405281
130	0xbcd9d8fb	-0.026592722
131	0xbe0f18fe	-0.13974378
132	0x3e393a2d	0.18088599
133	0x3d0e126d	0.03468554
134	0xbda04d29	-0.07827217
135	0x3dbee31b	0.09320661
136	0xbbf25704	-0.007395627
137	0xbc887359	-0.016656565
138	0x3e123518	0.14278066
139	0x3d57f596	0.052724443
140	0x3e20d016	0.15704378
141	0x3e0d74c9	0.13814081
142	0x3d002a97	0.031290617
143	0x3ca0c34d	0.019624377
144	0xbc9383cc	-0.018007182
145	0xbe36b5d2	-0.17842796
146	0xbd6586e6	-0.056036852
147	0xbe17ed78	-0.14836681
148	0xbcca7974	-0.024716116
149	0xbe14f90b	-0.14548127
150	0xbe7a8c9e	-0.24467704
151	0xbe40c6b9	-0.18825807
152	0x3c876d2d	0.016531551
153	0x3e7544ae	0.2395198
154	0xbc8e2c6c	-0.017355166
155	0xbdcfb775	-0.101424135
156	0xbd0d9479	-0.034565423
157	0x3def6cac	0.116906494
158	0x3d2298d4	0.03969653
159	0xbd87cc89	-0.06630809
160	0xbe0efaf3	-0.13962917
161	0xbd00b913	-0.0314265
162	0xbe52ef14	-0.20599014
163	0xbe1183a1	-0.14210369
164	0x3dedc798	0.11610335
165	0x3d55cf27	0.05219951
166	0x3d45a5a2	0.048253663
167	0xbc8507cc	-0.01623907
168	0xbdd0c20c	-0.101932615
169	0xbd270a42	-0.040781267
170	0xbd299e6d	-0.041410852
171	0xbdb664c7	-0.089059405
172	0xbdd419c1	-0.10356475
173	0xbd5e9c31	-0.054348174
174	0x3d49c189	0.049256835
175	0xbd8d8c1a	-0.06911488
176	0xbe25b20b	-0.16181199
177	0xbe8dac63	-0.27670583
178	0x3e00b18f	0.12567733
179	0xbd231807	-0.039817836
180	0xbe334251	-0.17505766
181	0xbd83ec4c	-0.064415544
182	0xbd80edd1	-0.0629536
183	0xbe6436e0	-0.22286558
184	0xbe143424	-0.14473015
185	0x3cb148c8	0.02164115
186	0xbec41347	-0.38295957
187	0xbcad402f	-0.02114877
188	0x3db52d8b	0.08846577
189	0x3e00a024	0.12561089
190	0xbd664e0a	-0.056226768
191	0xbb38ba30	-0.0028187148
192	0xbe3c5c01	-0.18394472
193	0x3ce2055e	0.02759045
194	0xbe07067b	-0.13186066
195	0xbdb9c04a	-0.09069879
196	0xbc93ad56	-0.018026989
197	0x3c3c3d53	0.01148923
198	0xbeee8485	-0.4658548
199	0x3db5b00f	0.08871471
200	0xbd906aa6	-0.070515916
201	0xbeaf31e3	-0.34217748
202	0x3d401bdf	0.04690158
203	0xbe36198c	-0.17783183
204	0xbe25685f	-0.16153096
205	0x3d9d8895	0.076920666
206	0xbded0511	-0.11573232
207	0x3d5996cd	0.05312233
208	0xbdcfaf90	-0.10140908
209	0x3cb3f596	0.02196769
210	0x3de5db5e	0.112234816
211	0x3c1a3601	0.00941229
212	0xbcd9089e	-0.026493367
213	0x3cb34ab8	0.021886215
214	0x3e0d49c3	0.13797669
215	0x3b5abb08	0.003337564
216	0x3c365b1f	0.011130123
217	0xbac1082a	-0.0014727165
218	0xbea2dc9a	-0.3180893
219	0x3ddaa948	0.10676819
220	0x3d8e5b44	0.06951001
221	0xbd8733de	-0.0660169
222	0x3db3e5ac	0.08784041
223	0xbe24dd1f	-0.16099976
224	0x3bdc17db	0.006716711
225	0xbeaafb02	-0.3339463
226	0x3d3a83ae	0.045535736
227	0xbdf66c85	-0.12032417
228	0xbd334a0d	-0.043771792
229	0xbe334fe6	-0.17510948
230	0x3c81eac5	0.015859017
231	0xbd85d4bc	-0.065347165
232	0x3d78c9c2	0.060739286
233	0xbe1d94f8	-0.15388858
234	0xbe8e898c	-0.27839315
235	0xbe5ccd91	-0.21562792
236	0xbf09a58b	-0.53768224
237	0xbd7ba7d6	-0.061439358
238	0xbd1aea16	-0.037820898
239	0xbd1a2244	-0.037630334
240	0x3da44747	0.080214076
241	0x3d3b0221	0.045656327
242	0xbdfb0e40	-0.12258577
243	0x3c9260c5	0.017868409
244	0x3d34a448	0.044101983
245	0x3ea11bb5	0.3146645
246	0xbdb12ce1	-0.08651138
247	0xbea9a13e	-0.3313083
248	0x3d192dfa	0.037397362
249	0x3e080cb9	0.13286103
250	0xbd4bb2f0	-0.049731195
251	0x3ddb3e9a	0.107053
252	0xbd8ff4c5	-0.07029108
253	0x3d60b2e8	0.05485812
254	0xbd31b737	-0.043387618
255	0x3c0c1354	0.00854953

t_conv1.bias f4 [8]
0	0x3d41c8c1	0.047310594
1	0x3ca2825b	0.019837549
2	0xbd28c957	-0.041207638
3	0x3e296da4	0.16545731
4	0x3df8e40e	0.12152873
5	0x3dcbf7c7	0.09959369
6	0xbc064baf	-0.008196755
7	0x3e6a7cee	0.2289922

t_conv2.weight f4 [8, 16, 2, 2]
0	0x3e7d6f16	0.24749407
1	0x3d3b5549	0.04573563
2	0x3dd96f6a	0.10616954
3	0xbd93fa47	-0.07225471
4	0x3e4f832e	0.20264885
5	0x3e8431c0	0.25819206
6	0x3cc73a2d	0.024319733
7	0x3c8af44a	0.01696219
8	0x3d31156c	0.04323332
9	0xbe14a07c	-0.14514345
10	0xbdd730b1	-0.10507334
11	0xbdc19327	-0.09451895
12	0x3e5f45f8	0.21804035
13	0x3d2670f5	0.040635068
14	0x3dc92066	0.09820633
15	0x3c7af0a7	0.015316165
16	0x3e17fd8f	0.14842819
17	0xbcec4a99	-0.028844165
18	0xbdea6e76	-0.1144685
19	0xbe9a8594	-0.30180037
20	0x3d8592bd	0.06522129
21	0x3d3c70dd	0.046006072
22	0x3dd4a007	0.10382085
23	0x3db3d384	0.08780578
24	0x3cd8d47a	0.026468504
25	0x3e8e3022	0.27771097
26	0x3cc0dc62	0.023542587
27	0x3d5ef410	0.054431975
28	0x3dfef00e	0.124481305
29	0x3e99dea1	0.30052665
30	0xbec0f31e	-0.37685484
31	0x3cd7d7b3	0.02634797
32	0xbc63b058	-0.013897024
33	0x3e217434	0.15766984
34	0x3e0639a6	0.13107929
35	0x3ced21e8	0.028946832
36	0x3e18cb96	0.14921412
37	0x3e50387b	0.20334046
38	0xbf050af7	-0.51969856
39	0xbedd625a	-0.432391
40	0xbdac62ce	-0.08417283
41	0x3ca2d8f1	0.019878836
42	0x3dfa6106	0.12225537
43	0x3d540074	0.051758245
44	0x3b610a83	0.003433854
45	0xbc94b4e3	-0.01815266
46	0xbd7b1c56	-0.06130632
47	0x3e355c4f	0.17710994
48	0xbd9048a7	-0.07045107
49	0xbd1a5449	-0.037678037
50	0x3d439961	0.047753695
51	0x3d09876a	0.033576407
52	0x3df438d8	0.119249046
53	0x3def8c86	0.116967246
54	0xbd94ff6c	-0.0727528
55	0xbd0a7739	-0.033805106
56	0xbc8db81e	-0.017299708
57	0xbd1f9d18	-0.038968176
58	0x3eaffc0d	0.34371987
59	0xbd4d8d3e	-0.050183527
60	0x3dc17e9d	0.09447978
61	0x3dc316f5	0.09525863
62	0xbf80d8f4	-1.0066209
63	0xbd339fea	-0.043853678
64	0xbdd180b1	-0.10229624
65	0x3e496e47	0.19670974
66	0x3d012d94	0.031537607
67	0x3e46d055	0.1941541
68	0x3e2f84a2	0.17140439
69	0x3e4b4d41	0.19853689
70	0x3dca9459	0.09891576
71	0xbc1eec7a	-0.009699935
72	0x3cec5ce6	0.028852891
73	0x3d389bf9	0.045070622
74	0xba8a10de	-0.0010533591
75	0xbd9a52bc	-0.075353116
76	0xbddc08ca	-0.10743864
77	0x3e5b686a	0.2142655
78	0xbdb206e0	-0.086927176
79	0xbcd0d4d9	-0.025492119
80	0x3e212cf0	0.15739799
81	0xbda3b2c5	-0.07993082
82	0xbd4c2dc4	-0.049848333
83	0xbe2693e1	-0.16267349
84	0x3ba91b55	0.005160729
85	0x3e6f3769	0.23360981
86	0x3c11d81e	0.008901624
87	0xbcb9f06d	-0.022697652
88	0xbd7e26d2	-0.06204874
89	0x3d8a3d8e	0.06750022
90	0xbeacd03b	-0.33752617
91	0xbed2af41	-0.41149333
92	0xbdcb1181	-0.09915448
93	0xbe3bb3e5	-0.18330343
94	0xbeeb369d	-0.45940104
95	0xbd1489e1	-0.036264304
96	0x3e7958b3	0.24350242
97	0x3d7eb70b	0.062186282
98	0x3d217b9f	0.039424535
99	0x3c8cd2e7	0.01719041
100	0x3e188b62	0.1489692
101	0xbd828288	-0.06372553
102	0x3e746133	0.23865204
103	0x3da1e965	0.079058446
104	0x3d585daf	0.05282372
105	0x3dd2f5a1	0.10300756
106	0x3e1205ae	0.14259979
107	0x3d6ea63c	0.058264002
108	0x3a17fba5	0.0005797691
109	0x3e9cc712	0.3062063
110	0x3ea1e46f	0.31619594
111	0x3e4d058b	0.20021646
112	0xbee8aad6	-0.45442837
113	0xbd2a4143	-0.041566145
114	0xbe28b813	-0.16476469
115	0xbd2790f5	-0.040909726
116	0x3da1672a	0.07881005
117	0x3e88f5c3	0.2675
118	0x3c737202	0.014858725
119	0x3e3db3f4	0.18525678
120	0x3dbd69b2	0.092486754
121	0xbde754d0	-0.112954736
122	0x3e8c2ca6	0.27377814
123	0x3b83b3bb	0.0040192283
124	0x3e70959f	0.23494576
125	0x3e328c3b	0.17436306
126	0x3f01e18b	0.50734776
127	0x3e93ad08	0.2884295
128	0xbb0f3c44	-0.002185599
129	0x3e18f6b3	0.14937858
130	0x3e151be4	0.1456142
131	0x3d096cf2	0.033551164
132	0x3c1e1cce	0.009650422
133	0x3d20f9cb	0.03930072
134	0xbf3a0f0b	-0.72679204
135	0x3e705a0d	0.23471852
136	0xbd74e7b5	-0.059791286
137	0x3cb6381e	0.022243556
138	0x3eb640b2	0.35596234
139	0x3cbf1ac3	0.02332819
140	0xbbe5af6b	-0.007009437
141	0xbd33ea28	-0.04392448
142	0x3e733f1d	0.23754545
143	0x3d2f3e2b	0.042783897
144	0xbeb370fd	-0.3504714
145	0x3e935d94	0.28782332
146	0xbdb5b49c	-0.08872339
147	0xbecd8bfa	-0.40145856
148	0xbda579fd	-0.08079908
149	0xbe8dfc2b	-0.2773145
150	0xbe38eced	-0.1805913
151	0x3da40ad2	0.08009876
152	0x3eb07a3e	0.34468263
153	0xbc8f522f	-0.017495243
154	0xbe3f0a3d	-0.1865625
155	0x3dacf799	0.08445663
156	0xbd04b16f	-0.032395776
157	0x3e70bc2e	0.23509285
158	0xbdb0af96	-0.0862724
159	0x3e679fd5	0.22619565
160	0x3e6ab4f4	0.2292059
161	0x3ddd1047	0.1079412
162	0x3e296a21	0.16544391
163	0x3e8f3dd9	0.27976874
164	0x3e31177e	0.17294118
165	0xbc3d7d54	-0.011565525
166	0xbf13225c	-0.57474303
167	0x3c84992e	0.016186323
168	0x3d5e00cf	0.05419999
169	0x3d0845e5	0.03326978
170	0x3da4f9f7	0.080554895
171	0x3dae8bc2	0.085227504
172	0x3c3f86a2	0.011689814
173	0x3cddd6d8	0.027079985
174	0x3d42845d	0.047489513
175	0xbcf97ea0	-0.030455887
176	0x3e433301	0.19062425
177	0xbc4bdbb2	-0.012442516
178	0x3de18f80	0.110136986
179	0x3e376935	0.17911227
180	0x3ba174a6	0.0049272357
181	0xbdccac24	-0.09993771
182	0x3e3f2b03	0.18668751
183	0x3e4118ae	0.18857071
184	0x3c344455	0.01100262
185	0xbe00f3db	-0.12593023
186	0xbceac7b3	-0.028659677
187	0x3e080bd9	0.1328577
188	0x3dca6d81	0.098841675
189	0xbe88c451	-0.26712278
190	0x3eaf5d8a	0.34251052
191	0x3d77015c	0.06030403
192	0xbdb3c70a	-0.08778198
193	0x3e0ff1f8	0.14057148
194	0x3d83546f	0.06412589
195	0xbd3a9d13	-0.045559954
196	0x3cf3fe6c	0.029784404
197	0xbe61bc0e	-0.22044393
198	0xbe5ca33b	-0.21546642
199	0x3d2338c5	0.03984906
200	0x3eae809b	0.34082493
201	0x3e9805c5	0.29691902
202	0x3eb8b128	0.3607266
203	0x3e4253c0	0.1897726
204	0xbd96853d	-0.07349632
205	0x3ca07dc3	0.019591218
206	0xbe1fda18	-0.1561054
207	0xbce43021	-0.02785498
208	0x3e1259bb	0.14292042
209	0x3d97e057	0.07415836
210	0xbd00adc8	-0.03141573
211	0x3c1474bf	0.009061038
212	0xbe043cb3	-0.1291378
213	0xbe8bc3b9	-0.27297762
214	0x3d65e8be	0.056130163
215	0x3e1a7691	0.15084292
216	0x3d64b1a4	0.055833474
217	0x3ca1085d	0.019657308
218	0x3eb18bd2	0.34676987
219	0xbe24a316	-0.16077837
220	0x3e4c2be3	0.19938616
221	0xbdda5576	-0.10660832
222	0xbe3eed01	-0.18645097
223	0x3c356cc5	0.011073296
224	0x3d91dc0a	0.07122047
225	0x3e2711f3	0.16315441
226	0xbe102f30	-0.140805
227	0xbe51ccaa	-0.2048823
228	0x3d3c6565	0.045995135
229	0x3c3f0596	0.011659047
230	0xbde3f99e	-0.11131595
231	0x3d3d7035	0.046249587
232	0xbd86920b	-0.06570824
233	0x3e3f1ef3	0.1866415
234	0xbd97bb82	-0.07408811
235	0x3e60acd2	0.21940926
236	0xbd5230a8	-0.051315933
237	0xbdee8efe	-0.11648367
238	0xbd9835d2	-0.074321404
239	0x3ded6660	0.11591792
240	0x3dc45c60	0.09587932
241	0x3d488602	0.048955925
242	0xbd3276c7	-0.043570306
243	0xbe8ee8aa	-0.27911884
244	0x3db33322	0.08749987
245	0x3d6e3cac	0.05816333
246	0x3e7c8a1e	0.24662063
247	0x3e5b97f0	0.21444678
248	0xbe372706	-0.1788598
249	0x3c9f49d4	0.019444384
250	0x3d7d5852	0.061851807
251	0xbd4a7984	-0.049432293
252	0xbe896cd8	-0.26840854
253	0x3c19d714	0.0093896575
254	0xbe9107aa	-0.2832616
255	0xbd235a28	-0.0398809

t_conv2.bias f4 [16]
0	0xbcf72721	-0.030170025
1	0xbdb5f855	-0.08885256
2	0x3c2606f6	0.010133496
3	0xbe0a219a	-0.1348938
4	0xbe91a2f4	-0.28444636
5	0x3ec3ed90	0.38267183
6	0xbe55b42c	-0.20869511
7	0x3e016156	0.12634787
8	0xbe5c5993	-0.21518545
9	0x3ca110fd	0.019661421
10	0xbe9a08d7	-0.3008487
11	0xbda1c876	-0.07899563
12	0xbe5ac080	-0.21362495
13	0x3ea6a20c	0.32545507
14	0xbe77901a	-0.24176064
15	0xbe244c40	-0.16044712

t_conv3.weight f4 [16, 32, 2, 2]
0	0x3d00a5cf	0.031408127
1	0xbc12f128	-0.008968629
2	0xbcdcba3a	-0.026944268
3	0x3d95ed50	0.073206544
4	0xbd21b603	-0.03948022
5	0xbddf477d	-0.10902307
6	0xbe47df43	-0.19518761
7	0xbe697bb1	-0.22801091
8	0x3dfbad2a	0.12288888
9	0x3dada6ea	0.08479102
10	0xbcad0985	-0.021122703
11	0xbe43dc3e	-0.19126984
12	0x3ce86e35	0.028372863
13	0xbc35ba87	-0.011091835
14	0x3dc665a7	0.096873574
15	0x3e039f21	0.12853672
16	0x3d03a47d	0.03213929
17	0x3d02a642	0.031896837
18	0x3cc284a3	0.023744887
19	0xbdad8d52	-0.0847422
20	0x3d0000eb	0.031250875
21	0xbd909d71	-0.070612796
22	0x3d7e544d	0.062092114
23	0x3da0a253	0.07843461
24	0x3c91d044	0.017799504
25	0xbc916118	-0.017746493
26	0x3cc4b067	0.024009896
27	0xbd0389f9	-0.032114003
28	0xbe2eedbc	-0.17082876
29	0xbe01c57d	-0.12672992
30	0xbc93f2d3	-0.018060124
31	0x3d8d2ac7	0.06892925
32	0xbdb61f08	-0.088926375
33	0x3d8098fa	0.06279178
34	0xbd25b573	-0.040456247
35	0xbbcd29d8	-0.0062610917
36	0x3d9b3293	0.07578006
37	0x3db94d6e	0.09047972
38	0x3da44418	0.080208
39	0xbb8fa111	-0.0043832143
40	0xbd85bf99	-0.06530685
41	0x3dee8517	0.116464786
42	0x3e7a1e15	0.24425538
43	0x3c722b82	0.014780881
44	0xbd84326f	-0.06454932
45	0xbce0dd62	-0.027449314
46	0x3de147f3	0.11000051
47	0xbddfa813	-0.109207295
48	0xbd98bd61	-0.07457996
49	0x3dd7d6e6	0.105390355
50	0xbd8ee341	-0.06976939
51	0xbd820523	-0.06348636
52	0x3d7d64c7	0.061863687
53	0xbd139177	-0.036027398
54	0xb89b174a	-7.395314e-05
55	0xbe28644f	-0.16444515
56	0x3db9c7e1	0.09071327
57	0x3e480e1b	0.19536631
58	0x3d626993	0.055276465
59	0x3e67852c	0.22609395
60	0x3d7f0efa	0.062270142
61	0x3e3b831c	0.18311733
62	0x3db952b1	0.09048975
63	0x3e0b1d26	0.13585338
64	0x3e2fb8cf	0.17160343
65	0x3d5c9f30	0.05386275
66	0x3d0ae0fa	0.03390596
67	0x3cd38c4f	0.02582374
68	0x3e198a17	0.14994083
69	0x3d357e63	0.044309985
70	0x3d4ae514	0.049534872
71	0x3c279ae3	0.010229799
72	0x3dd63efd	0.10461233
73	0xbd06d521	-0.0329181
74	0x3e0a3015	0.13494904
75	0xbd95bc74	-0.07311335
76	0x3d02815d	0.03186165
77	0xbdac3ad0	-0.08409655
78	0x3db91a5e	0.09038232
79	0xbb6bf9c9	-0.0036007038
80	0x3e45ccc9	0.193164
81	0x3eaa5b5c	0.33272827
82	0xbcf7057f	-0.030153988
83	0x3d9df1a0	0.07712102
84	0xbd31db62	-0.04342211
85	0xbe146300	-0.1449089
86	0x3cc464a8	0.023973778
87	0x3d01b9c3	0.031671297
88	0x3e850ac7	0.25984785
89	0xbbe07618	-0.0068500154
90	0xbd99f458	-0.07517308
91	0x3cdf6dab	0.027273973
92	0x3ba46c20	0.0050177723
93	0x3df6e5e2	0.120555654
94	0x3d4b9499	0.04970226
95	0x3e89e402	0.2693177
96	0x3e06a2d9	0.13148059
97	0x3d6733d3	0.056445908
98	0x3bbc4049	0.005744968
99	0x3db68838	0.089127004
100	0x3dbe0841	0.09278918
101	0x3d8d951f	0.06913208
102	0xbdcee429	-0.10102112
103	0x3d6eec62	0.0583309
104	0x3dd765b2	0.10517444
105	0x3d280a6f	0.041025575
106	0xbdddb01f	-0.10824608
107	0xbb9cda0a	-0.0047867345
108	0xbea63f20	-0.32470036
109	0xbe90b7d4	-0.2826525
110	0xbd681e11	-0.0566693
111	0xbeeaa20c	-0.45826757
112	0xbc87d29e	-0.016579922
113	0x3e3940a5	0.18091066
114	0x3e83db10	0.2575307
115	0x3e5773e3	0.21040301
116	0x3de6604d	0.11248837
117	0xbd337121	-0.04380906
118	0xbd0a17bc	-0.03371404
119	0x3d2addac	0.04171531
120	0x3d965483	0.07340338
121	0xbbfee767	-0.00777905
122	0xbd062b8e	-0.03275638
123	0x3d79ecd9	0.06101689
124	0x3db8d6dd	0.09025357
125	0xbcb1e232	-0.021714304
126	0xbc645854	-0.013937075
127	0x3c9e0060	0.019287288
128	0x3e01c06a	0.12671056
129	0x3d7ef1aa	0.062242188
130	0x3e4cb1bc	0.19989675
131	0xbd91532d	-0.07095943
132	0x3ed65921	0.41864875
133	0x3ef54a8f	0.47908446
134	0x3f0b9b82	0.5453416
135	0x3eba54af	0.36392733
136	0xbe22fa1e	-0.15915725
137	0xbdd42ea7	-0.10360461
138	0x3b362e01	0.0027798417
139	0xbcdc8ff5	-0.026924113
140	0x3d7c928b	0.06166319
141	0xba961e1c	-0.0011453065
142	0xbe636e26	-0.22209987
143	0xbe5566c0	-0.20839977
144	0x3db366e3	0.087598585
145	0x3d0667ef	0.032813963
146	0x3e096c01	0.13420106
147	0x3cd908e6	0.0264935
148	0x3e4fa33c	0.20277113
149	0xbd9a9840	-0.07548571
150	0x3e266b65	0.16251905
151	0x3e16a5bf	0.14711665
152	0xbda43db6	-0.08019583
153	0xbd6a1db0	-0.05715722
154	0x3b8acb8f	0.004235692
155	0x3e398bc9	0.1811973
156	0x3e63c916	0.22244677
157	0x3e4339ef	0.19065069
158	0x3e1084b4	0.14113122
159	0x3d7b51b3	0.06135721
160	0xbdd23e1e	-0.10265754
161	0x3dbc42c3	0.09192421
162	0xbd7866e0	-0.060644984
163	0x3d78cca9	0.060742054
164	0x3dc5e0bd	0.09662006
165	0xbd330e2b	-0.043714684
166	0x3e0bb0b0	0.1364162
167	0x3d2a1e9e	0.041533105
168	0x3ef36435	0.4753739
169	0xbd1ad8ca	-0.037804402
170	0x3c155ca7	0.009116328
171	0xbcc29a89	-0.023755329
172	0x3c0d32c8	0.008618064
173	0x3ba18027	0.004928607
174	0x3dd4bbb9	0.10387368
175	0x3dd1bd93	0.102412365
176	0x3a633cea	0.00086684397
177	0xbd6da33f	-0.05801701
178	0x3c8d426c	0.017243586
179	0x3b17c767	0.0023159625
180	0xbd6b6bbf	-0.0574758
181	0x3d005a45	0.031336088
182	0xbcfcabed	-0.0308437
183	0x3eb3ccb1	0.35117105
184	0x3c0cf613	0.008603591
185	0xbedfe6d6	-0.437308
186	0xbe00dca9	-0.12584175
187	0xbed1b55e	-0.40958685
188	0x3e5f7d4b	0.21825139
189	0xbdbf4259	-0.09338827
190	0x3e6fb1bb	0.23407643
191	0x3dd7d9ec	0.10539612
192	0x3c4c3619	0.01246407
193	0xbdfecb99	-0.12441177
194	0x3e443c90	0.19163728
195	0x3e00b8e3	0.12570529
196	0x3e1f1c75	0.15538199
197	0xbcb195ea	-0.02167793
198	0x3e2364c6	0.15956411
199	0x3e1bcdbd	0.15215202
200	0xbf09eead	-0.53879815
201	0xbd880630	-0.06641805
202	0xbe060c40	-0.1309061
203	0x3e184ccc	0.14873046
204	0x3ce9a5ee	0.028521504
205	0x3dc06a58	0.093952835
206	0x3e82b9cb	0.25532374
207	0x3e11de91	0.14245059
208	0xbd9e2dc4	-0.07723573
209	0xbea02c12	-0.31283623
210	0x3de7ca5c	0.11317894
211	0x3dc66fb1	0.09689272
212	0xbd443b3e	-0.04790806
213	0xbd58dbe2	-0.05294407
214	0x3d106ef3	0.03526206
215	0xbdce8d94	-0.10085598
216	0x3f18602e	0.5952176
217	0xbc903650	-0.017604023
218	0xbd8644b6	-0.06556074
219	0xbd8a8632	-0.06763877
220	0xbd03d788	-0.03218797
221	0x3cc72a9c	0.02431231
222	0xbc2df44e	-0.010617329
223	0xbe85e4bb	-0.2615107
224	0x3e8b6f38	0.2723329
225	0x3dc0b676	0.09409802
226	0xbd7b0594	-0.061284617
227	0x3cf45d70	0.02982971
228	0x3dfa7e2e	0.12231098
229	0x3d0b5062	0.034012206
230	0x3e3eefd0	0.18646169
231	0x3d788078	0.060669392
232	0x3e1674e7	0.14693032
233	0x3d33396c	0.043755934
234	0x3e153b00	0.14573288
235	0x3e66efe7	0.22552453
236	0x3ec76e83	0.389515
237	0x3e57c28c	0.21070307
238	0x3edc3fb8	0.43017364
239	0x3e1f4b32	0.15556028
240	0xbf86f901	-1.054474
241	0xbe6d23f4	-0.23158246
242	0x3d078d41	0.033093695
243	0xbedd845c	-0.43265045
244	0x3e8fd09d	0.28088847
245	0x3d63fd8b	0.05566172
246	0x3dad4950	0.08461249
247	0xbde62176	-0.11236851
248	0xbcc45118	-0.02396445
249	0x3e16f6fe	0.14742658
250	0x3c90b9b8	0.017666683
251	0x3e16e0e4	0.14734226
252	0xbe061959	-0.13095607
253	0x3ddc108d	0.10745344
254	0xbbcb8e1d	-0.0062120096
255	0x3d24b726	0.040213726

t_conv3.bias f4 [32]
0	0xbc4ffaed	-0.012694103
1	0xbea1dfc5	-0.31616035
2	0xbddf673f	-0.109083645
3	0xbdc7fcc0	-0.09765005
4	0xbdb60576	-0.0888776
5	0xbdce4459	-0.1007163
6	0xbd4375ee	-0.04771989
7	0xbf0736ce	-0.52818
8	0x3e86bea2	0.26317316
9	0xbdb3ebc1	-0.08785201
10	0x3c235758	0.009969555
11	0xbc91c9ae	-0.017796364
12	0x3eb1ad96	0.34702748
13	0xbf0fe73c	-0.5621221
14	0xbd7d2969	-0.06180707
15	0xbe04b6d5	-0.1296037
16	0xbc879872	-0.016552184
17	0xbdfbb326	-0.12290029
18	0xbdf65395	-0.12027661
19	0x3cf65d77	0.030073864
20	0xbe183991	-0.1486571
21	0xbca8a54e	-0.020586636
22	0xbde58b44	-0.112082034
23	0xbdfa6c0c	-0.122276396
24	0xbdfe021a	-0.124027446
25	0xbcf20d75	-0.029547432
26	0xbd0dc39f	-0.034610387
27	0x3b6d9b6d	0.003625597
28	0xbd6f72db	-0.058459144
29	0xbd21fe05	-0.039548893
30	0x3eced425	0.40396228
31	0x3a8a2225	0.001053874
